Data analysis/seq_model_gru.pt (torch, 62407 bytes, 5 tensors)

gru.weight_ih_l0 f4 [192, 12]
0.04196953 -0.004606318 -0.01634801 -0.008220128 0.022579435 -0.02690887 -0.039668437 0.096432105
-0.09822916 0.10177336 -0.11031828 0.12160503 -0.081377134 -0.06627906 0.006177004 0.12462927
-0.019507324 -0.0220971 0.05206525 0.03969866 -0.025957473 -0.015105607 0.093922235 0.029222017
-0.09729369 -0.11799356 0.084853865 -0.08370995 -0.09681844 -0.03475399 -0.02008176 0.14175099
-0.0855017 0.092403166 0.023453297 0.035901263 0.06279231 0.07244434 0.11274893 -0.07753746
0.1500278 0.0059736227 0.02171841 -0.034881614 0.1119684 -0.030656597 0.021803452 0.053303417
-0.11505547 0.12982205 0.0054085283 0.037847605 -0.09977246 0.03123942 -0.09255222 -0.02037014
0.01365767 -0.061688572 0.12233789 -0.11226119 0.02074354 0.066679485 -0.0721907 0.0025753372
-0.09875888 -0.15818533 0.10603472 -0.016370835 -0.026113357 -0.109613 0.107714266 -0.04403041
0.09792791 -0.100028306 0.053439658 -0.019444844 0.11052213 -0.008805741 -0.06413053 -0.03740198
-0.040712256 0.13572034 0.024572097 -0.14333117 -0.013258881 0.00969482 0.11848853 -0.10249825
0.014959728 0.06316308 0.039785285 0.009520925 -0.10748112 -0.12237368 -0.057435084 -0.08444546
0.035533722 0.0392798 -0.10593038 0.13812667 0.02020421 0.099671975 -0.03495319 0.100674324
0.092038065 -0.10152329 -0.02812912 -0.11265201 -0.014358758 -0.06311285 -0.030559734 0.08066424
0.09292833 0.05965759 0.097860225 0.07047544 -0.02168697 0.04852237 0.14025994 0.09702302
-0.14029515 0.13325927 -0.027950257 -0.020652823 -0.08801238 0.046537973 0.042413753 0.0984916
-0.06044615 0.07808199 -0.106081024 0.08076364 0.061470583 -0.0866086 -0.09309279 0.06577503
0.08590609 0.10251917 0.07008788 -0.0723814 0.053198412 -0.10491555 -0.03419176 -0.009708753
0.02728951 -0.082443394 -0.029781876 -0.064607166 -0.09251202 0.004365041 0.0040386906 0.022962028
0.0900035 -0.13358864 -0.056963846 -0.053860497 -0.07404258 0.14099763 0.14282133 -0.095698595
-0.0738265 -0.10329221 -0.043959577 0.024334574 -0.11547597 0.0039621666 -0.08670001 0.102565326
-0.055706542 0.018182626 0.12055232 -0.106346115 0.0011384723 0.09767738 0.014288912 -0.080585375
-0.06205027 -0.13915133 -0.08165996 -0.06396148 0.035131473 0.09377178 -0.011217799 0.11415322
-0.05365879 0.010130831 -0.09740752 0.08565855 -0.11411182 0.051052213 -0.017248621 -0.101637706
0.12617223 0.030415386 -0.08105495 0.04290104 -0.0696029 -0.07878691 0.016198996 -0.0146162035
-0.11406125 0.08546801 0.029641228 -0.061342496 0.10003338 0.086633466 0.12301621 -0.011300526
-0.01775693 -0.017114596 -0.0015247934 0.05759645 -0.046136256 0.047652245 0.10198304 0.06442361
0.08383727 -0.08438445 0.036520217 -0.105044395 -0.010742326 -0.020233607 0.12687016 -0.02429381
0.09938932 0.08745178 0.015546887 0.06881636 0.13302134 -0.075920634 -0.11214527 0.020288777
0.06357205 -0.009745064 0.109833196 -0.010402674 0.038437627 -0.09995118 0.06027817 -0.044476252
-0.013842735 -0.08796866 0.09315795 -0.07997581 -0.09967241 -0.07115709 -0.021000922 -0.07078432
0.0049216556 -0.002553203 0.08496107 0.069998235 0.056242917 -0.05128042 0.058160286 0.11309535
00000000: 3ee8 2b3d 99f0 96bb 43ec 85bc b7ad 06bc
00000010: 82f8 b83c fe6f dcbc 5f7b 22bd 327e c53d
00000020: 5f2c c9bd 8d6e d03d 8dee e1bd 0f0c f93d
00000030: 0ea9 a6bd 51bd 87bd 7768 ca3b a13d ff3d
00000040: d3cd 9fbc fa04 b5bc 5f42 553d 109b 223d
00000050: c4a4 d4bc 827d 77bc 4d5a c03d 0363 ef3c
00000060: ea41 c7bd 9ca6 f1bd ddc7 ad3d 1f70 abbd
00000070: bf48 c6bd 335a 0ebd 8182 a4bc 2c27 113e
00000080: 841b afbd df3d bd3d 2121 c03c 340d 133d
00000090: 4199 803d b35d 943d e9e8 e63d f6cb 9ebd
000000a0: e3a0 193e 61be c33b cfea b13c 06e0 0ebd
000000b0: b04f e53d 8b23 fbbc 279d b23c af54 5a3d
000000c0: 34a2 ebbd 12f0 043e 063a b13b 1706 1b3d
000000d0: 8155 ccbd d0e9 ff3c 058c bdbd 48df a6bc
000000e0: 6bc4 5f3c 28ad 7cbd 4a8c fa3d 32e9 e5bd
000000f0: 5bee a93c 418f 883d b8d8 93bd fdc6 283b
00000100: 1842 cabd 56fb 21be bb28 d93d 211c 86bc
00000110: aeeb d5bc c87c e0bd 4c99 dc3d 3b59 34bd
00000120: 6e8e c83d a4db ccbd 8be3 5a3d cb4a 9fbc
00000130: 6d59 e23d f445 10bc de56 83bd d232 19bd
00000140: e5c1 26bd 46fa 0a3e 6c4b c93c 68c5 12be
00000150: c73b 59bc 06d7 1e3c 1daa f23d 9aea d1bd
00000160: a619 753c a55b 813d e5f5 223d a7fd 1b3c
00000170: 101f dcbd 0d9f fabd 0d41 6bbd bef1 acbd
00000180: cf8b 113d dbe3 203d 07f2 d8bd 1471 0d3e
00000190: 4d83 a53c d220 cc3d 132b 0fbd 572e ce3d
000001a0: 747e bc3d 71eb cfbd 0a6f e6bc 19b6 e6bd
000001b0: ff40 6bbc 4f41 81bd 6858 fabc 4b33 a53d
000001c0: 3551 be3d 845b 743d f16a c83d 6d55 903d
000001d0: dfa8 b1bc 65bf 463d 4da0 0f3e 01b4 c63d
000001e0: 88a9 0fbe 1e75 083e f0f7 e4bc 1c30 a9bc
000001f0: d63f b4bd 9a9e 3e3d 0bba 2d3d f7b5 c93d
00000200: 6296 77bd 73e9 9f3d 0241 d9bd 6867 a53d
00000210: 94c8 7b3d da5f b1bd 6fa7 bebd 0fb5 863d
00000220: 88ef af3d 92f5 d13d 3c8a 8f3d b33c 94bd
00000230: 94e6 593d f7dd d6bd a90c 0cbd 7611 1fbc
00000240: 408e df3c 15d8 a8bd 1ff9 f3bc c350 84bd
00000250: f176 bdbd 9e08 8f3b fe56 843b dd1a bc3c
00000260: c153 b83d 76cb 08be ec52 69bd d39c 5cbd
00000270: a3a3 97bd af61 103e c13f 123e a0fd c3bd
00000280: 5932 97bd de8a d3bd f50e 34bd 4d59 c73c
00000290: aa7e ecbd 10d5 813b c68f b1bd c50d d23d
000002a0: 8b2c 64bd bbf3 943c 22e4 f63d fecb d9bd
000002b0: cb38 953a 140b c83d 0a1c 6a3c f209 a5bd
000002c0: 6d28 7ebd b07d 0ebe 563d a7bd 3dfe 82bd
000002d0: 05e6 0f3d 6b0b c03d dcca 37bc 2ac9 e93d
000002e0: 52c9 5bbd c9fb 253c 987d c7bd c06d af3d
000002f0: 75b3 e9bd 201c 513d fb4c 8dbc 6e27 d0bd
00000300: 4b33 013e b029 f93c 2300 a6bd 00b9 2f3d
00000310: f78b 8ebd 085b a1bd c2b3 843c cd78 6fbc
00000320: f298 e9bd da09 af3d 29d2 f23c 4542 7bbd
00000330: 4dde cc3d e36c b13d ecef fb3d d725 39bc
00000340: fb76 91bc e933 8cbc 94db c7ba 41ea 6b3d
00000350: 5ff9 3cbd 002f 433d 7cdc d03d 87f0 833d
00000360: e0b2 ab3d c1d1 acbd 3996 153d 8421 d7bd
00000370: 9500 30bc f3c0 a5bc 40ea 013e d003 c7bc
00000380: a18c cb3d eb19 b33d 5fb8 7e3c 97ef 8c3d
00000390: bf36 083e 477c 9bbd 6bac e5bd a634 a63c
000003a0: 1032 823d c3a9 1fbc 3af0 e03d fa6f 2abc
000003b0: c670 1d3d 34b3 ccbd 3ee6 763d bb2c 36bd
000003c0: a4cc 62bc ea28 b4bd 98c9 be3d 5cca a3bd
000003d0: 0c21 ccbd cfba 91bd 200a acbc 5ff7 90bd
000003e0: d745 a13b a353 27bb 1200 ae3d 3c5b 8f3d
000003f0: f95e 663d 6b0b 52bd 7b39 6e3d 899e e73d

gru.weight_hh_l0 f4 [192, 64]
0.055060454 0.11208782 0.06616188 -0.0524903 0.022901447 -0.012172617 0.10959792 0.051522125
-0.13429862 0.07799737 0.14384308 0.02092905 -0.114012726 0.08624492 0.03122227 -0.01787723
0.03691847 0.09956795 0.07075801 -0.09872738 0.018866282 -0.11286483 -0.11290946 -0.066605724
0.043084443 0.094657674 0.036186043 0.0783385 -0.11811712 -0.06405991 -0.06726788 -0.09883514
-0.07669978 -0.066826895 -0.12819658 0.019632662 -0.06265845 0.0033636107 -0.017000914 0.013852673
-0.098195575 -0.09698407 -0.10841332 0.08732078 0.011648439 -0.110064864 -0.06365315 -0.0068455157
-0.06493762 0.10303988 0.06665037 0.026975831 -0.0061770086 0.07969326 0.014698876 -0.020194901
0.027188087 -0.097817846 0.035530157 0.05847393 0.049412016 0.053905908 0.120858 -0.054719683
0.0039605186 -0.07182132 0.08762967 -0.025912866 -0.11053939 0.10163208 0.01175428 -0.06443562
0.089258224 -0.044750784 -0.035625804 -0.0655011 0.011767206 -0.10669051 0.060364135 -0.11600156
-0.08566171 -0.055024713 -0.103521965 0.03146393 0.0295534 -0.049668163 -0.01500687 -0.0010072673
-0.10742201 -0.09953309 -0.0670891 -0.067407586 0.007943272 0.10395341 0.097762525 -0.05074746
0.09903302 0.1383844 -0.039846126 -0.04308821 -0.10242027 -0.02930709 -0.069760546 0.028659066
-0.12931591 0.0069260364 0.023531862 -0.007861174 -0.028537711 0.10404498 0.05148543 -0.12107106
-0.042748768 0.056216963 0.06415989 -0.11078614 -0.0623175 -0.041116294 -0.009849283 -0.011785028
0.014008032 -0.031648044 -0.051216617 0.09430253 -0.118689835 -0.010423417 -0.08476813 -0.08586031
0.061077975 0.010143136 0.13059613 0.12142141 -0.12383701 -0.06617357 0.01736056 0.0025949464
-0.11295434 -0.08332968 -0.07018448 0.014397921 0.06048308 0.08603702 0.100088894 -0.05633198
0.10714636 -0.08574366 -0.089553125 -0.059892483 0.057163287 0.009927855 -0.12875088 0.007643711
-0.028411489 0.07486868 -0.079386786 -0.12431153 -0.0045644003 -0.06100301 -0.031090487 -0.040202945
0.099654436 -0.025255376 -0.1258712 -0.07160135 -0.031519063 0.07165184 0.035257567 -0.11623275
0.04596044 0.08202191 -0.026144726 0.05305229 0.09282612 0.10055144 0.017265951 -0.09803821
-0.1074423 0.11543495 -0.06377874 0.121835254 0.08130637 -0.10404969 0.06737408 -0.109160505
-0.067004286 0.08427941 0.10073665 0.046107594 0.06694396 0.01199266 0.06877647 -0.124789946
0.06443155 0.0031309163 -0.02094102 -0.07889794 0.029367246 -0.016209064 0.009765381 -0.016106125
-0.00089432567 -0.05475075 -0.12967978 0.027830428 -0.0048423316 -0.03125325 0.06530078 -0.060599383
-0.007824999 -0.121370405 -0.04055561 0.089492366 0.028934563 0.07246425 0.086528696 0.02254019
0.094164886 0.017741052 0.04503322 -0.116498455 0.10858743 0.019492 0.028123522 -0.12504861
0.032847725 0.05719337 -0.1006825 0.12471214 0.10557527 0.014171867 -0.030349495 -0.014011312
-0.07909788 -0.118968174 -0.0055125784 -0.051674724 0.10740595 0.06922881 -0.031022808 -0.09566417
0.027369056 0.0018167641 -0.09105983 0.13741913 0.07903354 -0.04993686 0.10211098 -0.10789895
-0.085520424 0.04095127 0.06602185 -0.0389863 -0.014152543 -0.11224126 0.024935735 -0.00869449
00000000: 1287 613d 4d8e e53d e17f 873d 1200 57bd
00000010: d19b bb3c a86f 47bc e074 e03d dd08 533d
00000020: 9485 09be 16bd 9f3d 9a4b 133e 6673 ab3c
00000030: 817f e9bd 2da1 b03d d9c5 ff3c 4573 92bc
00000040: d237 173d 48ea cb3d 93e9 903d 9531 cabd
00000050: 768d 9a3c ad25 e7bd 133d e7bd 9568 88bd
00000060: 5079 303d e2db c13d d137 143d ef6f a03d
00000070: 63e7 f1bd d831 83bd bec3 89bd 146a cabd
00000080: c614 9dbd 8adc 88bd f745 03be add4 a03c
00000090: 1353 80bd 0670 5c3b 8045 8bbc 52f6 623c
000000a0: c31a c9bd 969f c6bd cd07 debd 3dd5 b23d
000000b0: 18d9 3e3c b069 e1bd 955c 82bd 5950 e0bb
000000c0: 04fe 84bd 9306 d33d fd7f 883d 6bfc dc3c
000000d0: 8168 cabb 3836 a33d 8ed3 703c c76f a5bc
000000e0: 8db9 de3c b954 c8bd 1288 113d 5c82 6f3d
000000f0: 4164 4a3d 71cc 5c3d 6684 f73d bf21 60bd
00000100: 3dc7 813b 0e17 93bd 2f77 b33d 3847 d4bc
00000110: 7a62 e2bd 7b24 d03d 0695 403c d3f6 83bd
00000120: 04cd b63d 994c 37bd 5dec 11bd 7125 86bd
00000130: 3dcb 403c 8e80 dabd 6240 773d 3a92 edbd
00000140: 686f afbd 9861 61bd 5303 d4bd 52e0 003d
00000150: f919 f23c d870 4bbd 60df 75bc 4806 84ba
00000160: 1200 dcbd 01d8 cbbd 0366 89bd fd0c 8abd
00000170: 7f24 023c 87e5 d43d b837 c83d 92dc 4fbd
00000180: d3d1 ca3d a4b4 0d3e b135 23bd 437d 30bd
00000190: b8c1 d1bd 6c15 f0bc 9ede 8ebd 6bc6 ea3c
000001a0: 646b 04be cef3 e23b e4c5 c03c 27cc 00bc
000001b0: ebc7 e9bc 8915 d53d 63e2 523d 1bf4 f7bd
000001c0: 5519 2fbd c243 663d 4366 833d d8e3 e2bd
000001d0: a340 7fbd 8f69 28bd e35e 21bc fd15 41bc
000001e0: f281 653c 61a1 01bd 84c8 51bd af21 c13d
000001f0: a813 f3bd fbc6 2abc ea9a adbd 88d7 afbd
00000200: e62c 7a3d 652f 263c feba 053e caab f83d
00000210: 429e fdbd 0286 87bd bc37 8e3c fa0f 2a3b
00000220: 9b54 e7bd c0a8 aabd e1bc 8fbd 42e5 6b3c
00000230: 1bbd 773d 2d34 b03d 68fb cc3d 5dbc 66bd
00000240: 8d6f db3d 5f9a afbd a167 b7bd d251 75bd
00000250: 0d24 6a3d 71a8 223c 45d7 03be 1878 fa3b
00000260: 36bf e8bc c054 993d 8a95 a2bd 0b97 febd
00000270: f790 95bb 4bde 79bd 7ab1 febc d8ab 24bd
00000280: a017 cc3d 5de4 cebc 61e4 00be bba3 92bd
00000290: 221a 01bd 33be 923d 3d6a 103d 700b eebd
000002a0: 0441 3c3d 1afb a73d 772d d6bc 5c4d 593d
000002b0: 9f1b be3d eaed cd3d 5371 8d3c 42c8 c8bd
000002c0: b50a dcbd 2969 ec3d 6e9e 82bd c384 f93d
000002d0: f483 a63d 0118 d5bd 6cfb 893d 8b8f dfbd
000002e0: 8b39 89bd af9a ac3d 044f ce3d 51db 3c3d
000002f0: ea19 893d dd7c 443c aeda 8c3d df91 ffbd
00000300: b0f4 833d 0f30 4d3b 818c abbc 3e95 a1bd
00000310: 9493 f03c dfc8 84bc fafe 1f3c fef0 83bc
00000320: 2e71 6aba 5342 60bd c7ca 04be a3fc e33c
00000330: 6cac 9ebb 6803 00bd 6abc 853d 0f37 78bd
00000340: 6d34 00bc 0c91 f8bd a41d 26bd c647 b73d
00000350: 2d08 ed3c 2368 943d f535 b13d 34a6 b83c
00000360: 85d9 c03d af55 913c c174 383d be96 eebd
00000370: 1663 de3d b0ad 9f3c 4d63 e63c be0c 00be
00000380: 568b 063d 9843 6a3d a032 cebd 1469 ff3d
00000390: d937 d83d 1e31 683c 819f f8bc b48f 65bc
000003a0: 12fe a1bd 96a5 f3bd dca2 b4bb e0a8 53bd
000003b0: a7f7 db3d d6c7 8d3d 8b23 febc 94eb c3bd
000003c0: 1235 e03c 7d20 ee3a 937d babd 9ab7 0c3e
000003d0: 56dc a13d 988a 4cbd 901f d13d 20fa dcbd
000003e0: 5525 afbd 85bc 273d 7736 873d 19b0 1fbd
000003f0: 11e0 67bc bfde e5bd 0746 cc3c 5673 0ebc

gru.bias_ih_l0 f4 [192]
-0.0836636 0.10255905 0.075124286 -0.040049665 -0.09096406 0.06004015 0.03684626 0.09687968
-0.09830358 -0.01960612 0.14062086 0.10788871 -0.015016595 -0.016916212 0.09135432 0.078655645
-0.077248104 0.07531334 -0.016161993 0.11095621 -0.0971804 -0.044276692 0.10507289 -0.026292376
-0.13384083 0.06277058 -0.012025979 0.060039915 -0.029907018 0.1028227 0.013737917 -0.012552522
0.09455122 0.013276161 -0.104813844 0.031001622 0.051472545 -0.07678476 -0.039336283 0.12687014
-0.0794975 0.041309603 0.07440671 0.062146027 -0.0007168032 0.058690146 0.1318886 0.0016049681
-0.037266754 0.11911441 0.08100468 0.12617487 -0.12343095 -0.014877248 -0.1145267 -0.04224942
0.092225835 -0.024856983 -0.077788405 -0.02649142 0.06890455 -0.10422763 -0.077749796 -0.11428655
0.119916454 -0.08599636 -0.058010023 0.09502679 0.106933974 0.056864075 -0.13570422 0.06661387
0.10663873 -0.06769173 0.012884815 0.07573687 0.014188391 0.029502196 -0.054915015 -0.10930366
0.030404022 0.11307799 0.08842194 0.012513274 0.047100745 0.0368808 0.017337006 0.07760866
0.11417464 -0.058031313 -0.04660978 0.018682454 0.053516973 0.05667286 -0.093471095 -0.022149688
0.017036224 0.09441289 -0.011695409 -0.14771265 0.057528768 -0.064173505 0.11190358 0.07408019
-0.028160132 -0.002640286 0.047365855 0.05419887 0.08462207 -0.029167913 -0.09639701 -0.035067063
-0.07020734 -0.12711823 -0.05508041 -0.08072908 -0.12076199 -0.018187625 0.0077345986 0.0776088
0.063358314 -0.025757974 0.042942807 0.03627788 0.018626178 0.08713493 0.05687526 0.034309786
-0.10290155 -0.05005853 -0.09509981 -0.047164522 0.08061181 -0.022376085 -0.13016649 -0.003798419
-0.01820533 0.05869464 0.080738634 0.12539543 -0.024938302 -0.04247164 -0.03262752 -0.04808351
-0.0974171 0.028051952 0.09863691 -0.06496303 0.008991421 0.07824507 0.109668724 0.0624589
-0.044097476 -0.0141944755 -0.053885214 -0.03823145 -0.08097853 0.0026833771 0.0538043 0.01541069
-0.017828912 0.11881824 -0.10635147 0.103145674 -0.06101311 -0.04612683 -0.11177618 -0.09448896
0.059968147 -0.10660318 -0.10181707 0.049547527 0.030759366 -0.009874456 0.09487743 -0.070836924
-0.003921983 -0.099010296 0.04710706 0.08607721 0.02981414 0.030143164 0.13303253 -0.022417072
-0.09858412 0.062085737 -0.022663098 0.09649913 -0.032744654 -0.05932876 0.0011806366 -0.04484877
00000000: d257 abbd 7b0a d23d c3da 993d 1e0b 24bd
00000010: 5d4b babd a9ec 753d 1bec 163d db68 c63d
00000020: 6353 c9bd 049d a0bc eafe 0f3e c2f4 dc3d
00000030: 2a08 76bc de93 8abc f917 bb3d 3616 a13d
00000040: 4134 9ebd e13d 9a3d 2866 84bc 023d e33d
00000050: 8406 c7bd 7a5b 35bd 7530 d73d 1c63 d7bc
00000060: 920d 09be dd8d 803d 9d08 45bc 6aec 753d
00000070: 90ff f4bc b594 d23d 0015 613c 18a9 4dbc
00000080: 12a4 c13d 4184 593c a4a8 d6bd 1df7 fd3c
00000090: e0d4 523d 5441 9dbd 151f 21bd 3fea 013e
000000a0: 96cf a2bd 4234 293d 8c62 983d d58c 7e3d
000000b0: d9e7 3bba 1465 703d ce0d 073e cb5d d23a
000000c0: 06a5 18bd 41f2 f33d c8e5 a53d fc33 013e
000000d0: 5ec9 fcbd b3bf 73bc f98c eabd ba0d 2dbd
000000e0: e6e0 bc3d dfa0 cbbc 874f 9fbd 8904 d9bc
000000f0: d41d 8d3d 4c75 d5bd 493b 9fbd 110f eabd
00000100: c296 f53d dc1e b0bd eb9b 6dbd 689d c23d
00000110: 3300 db3d 4eea 683d 0cf6 0abe da6c 883d
00000120: 6865 da3d f6a1 8abd d51a 533c ef1b 9b3d
00000130: 6d76 683c 97ae f13c 91ee 60bd 99da dfbd
00000140: db11 f93c 6f95 e73d 9016 b53d 7a04 4d3c
00000150: b6ec 403d 5210 173d 5606 8e3c 4af1 9e3d
00000160: 65d4 e93d 3eb2 6dbd e6e9 3ebd f20b 993c
00000170: 9d34 5b3d cd21 683d c66d bfbd 4373 b5bc
00000180: 8d8f 8b3c 8c5b c13d 1a9e 3fbc fc41 17be
00000190: 49a3 6b3d 666d 83bd b42d e53d 5bb7 973d
000001a0: 14b0 e6bc a608 2dbb b302 423d a2ff 5d3d
000001b0: 564e ad3d 8cf1 eebc cc6b c5bd 7ba2 0fbd
000001c0: dec8 8fbd 482b 02be ff9b 61bd 4a55 a5bd
000001d0: 1052 f7bd 37fe 94bc 8472 fd3b 5df1 9e3d
000001e0: 01c2 813d 6302 d3bc cce4 2f3d 1d98 143d
000001f0: ed95 983c cc73 b23d 08f6 683d 6b88 0c3d
00000200: 0cbe d2bd 2c0a 4dbd b0c3 c2bd 962f 41bd
00000210: ce17 a53d 0d4e b7bc 5d4a 05be e5ee 78bb
00000220: 5823 95bc ca69 703d 4c5a a53d a967 003e
00000230: 694b ccbc bef6 2dbd 6fa4 05bd 37f3 44bd
00000240: 9e82 c7bd 35cd e53c 2602 ca3d 560b 85bd
00000250: c150 133c f43e a03d ff99 e03d e7d4 7f3d
00000260: 8e9f 34bd f28f 68bc beb6 5cbd 9598 1cbd
00000270: 12d8 a5bd 99db 2f3b e661 5c3d 1e7d 7c3c
00000280: f00d 92bc fa56 f33d cdce d9bd 0a3e d33d
00000290: e2e8 79bd 7def 3cbd e9ea e4bd 6e83 c1bd
000002a0: 29a1 753d c552 dabd 7885 d0bd 59f2 4a3d
000002b0: 11fb fb3c 78c8 21bc 194f c23d f312 91bd
000002c0: fa83 80bb e9c5 cabd 55f3 403d 4049 b03d
000002d0: c93c f43c ccee f63c ae39 083e 02a4 b7bc
000002e0: 79e6 c9bd 9d4d 7e3d f6a7 b9bc 56a1 c53d
000002f0: 421f 06bd b702 73bd 97bf 9a3a 58b3 37bd

gru.bias_hh_l0 f4 [192]
-0.051090665 0.107609905 -0.0263719 -0.027346019 -0.073455244 -0.031314418 -0.09994451 0.1105052
-0.008501424 -0.07177013 0.11305704 0.0069486797 -0.012798286 -0.018483713 -0.0035430165 -0.0776546
0.07700574 -0.046682205 0.0039543062 0.06508038 0.07461853 0.13637462 0.05383098 0.12836625
-0.037203256 -0.124123625 0.04453805 0.022698747 -0.08960167 -0.062220834 0.06522549 0.037562694
0.1268234 0.08351548 -0.08488433 0.010051437 0.11967565 0.020691188 0.07071813 0.06338695
0.06117689 0.0045179203 -0.05054009 -0.041777506 0.10257378 0.023414426 0.045289412 0.14917842
-0.040661525 0.07446725 -0.09222924 0.111763366 -0.100418665 0.09634853 0.045696277 -0.06131502
0.09384455 0.0012502248 0.036667813 0.10854253 -0.027407506 -0.051638026 0.020378707 -0.06763097
-0.0636836 -0.00840135 -0.04286975 0.018608496 0.1158615 0.07811782 -0.12675096 0.04697784
-0.060899634 0.11983361 -0.08507607 -0.08051863 0.08404662 -0.02896849 -0.11929856 0.052656073
-0.029270481 -0.10124337 -0.11450051 -0.019319722 -0.06340279 -0.07304268 -0.076765396 0.014410798
0.10906569 0.101946555 0.03624725 0.063441455 0.015131931 -0.0096535105 0.09102923 0.087007545
-0.04750976 0.05185157 0.096861914 0.014580324 -0.034488853 0.037700206 0.0006557358 0.01268104
0.005052741 0.044738393 0.017909456 -0.0009957543 0.09067769 -0.11240151 0.107977405 -0.058112793
0.030112904 -0.05211901 -0.090070084 0.10700409 -0.024067998 -0.06650608 -0.01617038 -0.030702695
0.01758747 0.060996838 0.056962598 0.07773163 -0.053358834 -0.08707118 -0.029468615 -0.01838232
-0.115754485 0.020549258 -0.013660887 -0.11641392 -0.0656919 0.043740984 -0.11722485 -0.04114685
0.003408895 -0.11466017 -0.003355998 0.023080453 0.06998726 0.08208355 0.070059344 0.053966366
-0.009265061 0.08725676 0.0069297682 -0.092115685 0.104450166 0.10404677 -0.011187028 0.11012782
-0.009848207 0.08079617 -0.042743593 -0.00979781 -0.025557855 -0.020106757 -0.0065276464 0.069743104
0.058752988 -0.11695222 0.13139124 -0.11159459 -0.07536947 0.031322304 0.11744954 0.00018422655
-0.025613204 -0.0998007 0.0985753 0.086012416 -0.010886169 -0.06464357 -0.033524375 0.117128894
0.07574462 -0.079049766 0.03511429 -0.11360487 0.07117397 -0.058735836 -0.09449864 0.016469872
-0.07202148 -0.08567705 -0.105889596 -0.13425344 0.052605577 0.067180306 0.08069653 -0.12683174
00000000: 7244 51bd 9562 dc3d e209 d8bc c204 e0bc
00000010: b46f 96bd 8c43 00bd b5af ccbd 8d50 e23d
00000020: 8f49 0bbc 38fc 92bd 738a e73d c0b1 e33b
00000030: e7af 51bc 286b 97bc f431 68bb 6009 9fbd
00000040: 2fb5 9d3d d735 3fbd 2093 813b dd48 853d
00000050: 9ad1 983d caa5 0b3e e07d 5c3d 7172 033e
00000060: 7162 18bd 8734 febd 886d 363d b9f2 b93c
00000070: 1581 b7bd 46db 7ebd f194 853d 57db 193d
00000080: fedd 013e 2a0a ab3d d6d7 adbd c8ae 243c
00000090: 8218 f53d 9180 a93c abd4 903d 04d1 813d
000000a0: 9e94 7a3d 100b 943b 2003 4fbd e41e 2bbd
000000b0: 3412 d23d 9ccf bf3c 6481 393d 3ac2 183e
000000c0: b38c 26bd 4982 983d afe2 bcbd 31e4 e43d
000000d0: 4da8 cdbd 6152 c53d 052c 3b3d 7525 7bbd
000000e0: 9231 c03d 95de a33a fd30 163d 8c4b de3d
000000f0: b585 e0bc 6582 53bd 3ff1 a63c 1b82 8abd
00000100: 8c6c 82bd d1a5 09bc 3198 2fbd d870 983c
00000110: cb48 ed3d 3cfc 9f3d 01cb 01be d66b 403d
00000120: e571 79bd 536b f53d 5d3c aebd f4e6 a4bd
00000130: a220 ac3d 544f edbc ce52 f4bd e5ad 573d
00000140: a6c8 efbc af58 cfbd 3e7f eabd 6544 9ebc
00000150: 52d9 81bd 6797 95bd 2d37 9dbd 451b 6c3c
00000160: d55d df3d 5bc9 d03d ff77 143d 98ed 813d
00000170: ebeb 773c c229 1ebc 886d ba3d 0331 b23d
00000180: 9899 42bd 5062 543d 8a5f c63d 50e2 6e3c
00000190: 2f44 0dbd 886b 1a3d afe5 2b3a 23c4 4f3c
000001a0: 7791 a53b 9b3f 373d dab6 923c f883 82ba
000001b0: 3ab5 b93d c332 e6bd 4223 dd3d ae07 6ebd
000001c0: 56af f63c be7a 55bd aa76 b8bd f624 db3d
000001d0: 402a c5bc 5734 88bd bf77 84bc 3884 fbbc
000001e0: 9913 903c d2d7 793d 9d51 693d c331 9f3d
000001f0: cb8e 5abd 6052 b2bd 2a68 f1bc 8596 96bc
00000200: b010 edbd eb56 a83c ead1 5fbc 6c6a eebd
00000210: 7a89 86bd bf29 333d 9513 f0bd 9989 28bd
00000220: c567 5f3b f4d2 eabd 4ef0 5bbb 3813 bd3c
00000230: 7b55 8f3d 6c1b a83d 467b 8f3d d60b 5d3d
00000240: 7bcc 17bc acb3 b23d 1c13 e33b 26a7 bcbd
00000250: f8e9 d53d 7916 d53d cc49 37bc b28a e13d
00000260: 605a 21bc 7678 a53d e813 2fbd fe86 20bc
00000270: b55e d1bc edb6 a4bc dee5 d5bb 79d5 8e3d
00000280: f9a6 703d a584 efbd 6d8b 063e b48b e4bd
00000290: 4f5b 9abd d14b 003d 6289 f03d f02c 4139
000002a0: c8d2 d1bc 4f64 ccbd d9e1 c93d 4727 b03d
000002b0: e75b 32bc d963 84bd db50 09bd 46e1 ef3d
000002c0: ff1f 9b3d d8e4 a1bd 00d4 0f3d aca9 e8bd
000002d0: a9c3 913d fd94 70bd 8188 c1bd d3eb 863c
000002e0: ff7f 93bd 7377 afbd a5dc d8bd bc79 09be
000002f0: f278 573d d495 893d 3944 a53d 2ee0 01be

fc.weight f4 [1, 64]
-0.05676404 -0.094469145 -0.096533865 -0.04816077 0.026005317 0.11384761 0.040710982 -0.13963252
0.080820136 0.12889898 0.1277988 -0.13507904 -0.08959526 -0.063268654 0.1369962 0.1072154
-0.0077678035 0.115250364 0.011568769 -0.029811224 0.025654005 -0.09051492 0.046211757 0.064242505
0.10506085 -0.11600191 -0.012073329 0.005921643 0.02377691 0.10925856 0.0151498895 0.016564058
-0.108143695 0.045285083 -0.036991864 0.0817295 -0.006179607 -0.0004003253 -0.035798 0.07722607
-0.086501844 0.081284754 0.0041361316 -0.058118846 0.08194591 0.015579065 -0.0397989 -0.0057929857
-0.03330073 -0.07220516 0.07145679 0.10191487 -0.055366818 0.03518364 -0.08752312 -0.07668525
-0.13180389 0.090725824 -0.06053613 -0.0069870856 0.03001049 -0.075471945 -0.06375151 0.10143651
00000000: 6981 68bd 0a79 c1bd 8cb3 c5bd 3a44 45bd
00000010: 1a09 d53c f028 e93d 8fc0 263d d4fb 0ebe
00000020: 0785 a53d 18fe 033e b0dd 023e 2952 0abe
00000030: b87d b7bd ff92 81bd bb48 0c3e bf93 db3d
00000040: 0f89 febb 6208 ec3d ef8a 3d3c ab36 f4bc
00000050: 5928 d23c e35f b9bd 8a48 3d3d 9391 833d
00000060: 252a d73d 6992 edbd 36cf 45bc 580a c23b
00000070: cbc7 c23c f4c2 df3d 3e37 783c 59b1 873c
00000080: 717a ddbd da7c 393d c884 17bd cc61 a73d
00000090: 4d7e cabb c1e2 d1b9 eca0 12bd b428 9e3d
000000a0: e127 b1bd 9f78 a63d 6388 873b 070e 6ebd
000000b0: 42d3 a73d 563f 7f3c 2c04 23bd 16d3 bdbb
000000c0: 5966 08bd 4de0 93bd f057 923d beb8 d03d
000000d0: 51c8 62bd b81c 103d 523f b3bd 280d 9dbd
000000e0: 99f7 06be 76ce b93d bcf4 77bd ecf3 e4bb
000000f0: 8fd8 f53c 0991 9abd 2790 82bd f2bd cf3d
