Data analysis/optimized_models/best_hybrid_model.pth (torch, 135983 bytes, 23 tensors)

gru.weight_ih_l0 f4 [192, 11]
000000 f2 ca c3 2e b4 35 40 bd b9 39 0a be a7 7c ae 3d
       8.903624e-11 -0.046926215 -0.13498582 0.08519869
000010 f6 47 1d be 1f 4f 37 bd bd 14 69 bd 07 23 64 bc
       -0.15359482 -0.04475319 -0.056904543 -0.013924367
000020 e9 a0 4c bd f0 0b 97 3d 4e cd e3 bb 74 31 a4 2c
       -0.049958143 0.07375324 -0.0069519645 4.6666507e-12
000030 05 9a e7 3c b9 22 f0 3d 8b 22 de 3d fd 14 8a 3d
       0.028271684 0.11725373 0.10846432 0.067422844
000040 39 4a 0d bd 1d 75 ce 3d 0a 01 84 bd 04 8e e5 3c
       -0.034494612 0.10080931 -0.06445511 0.02802182
000050 e1 ae 8b bd aa 32 65 bd b2 05 2a aa 44 69 19 3d
       -0.06820465 -0.05595652 -1.5101009e-13 0.037453905
000060 d9 28 42 3b a7 d7 cc 3b 8e 35 5e bc c3 90 12 3e
       0.0029626398 0.0062512937 -0.013562573 0.14313035
000070 92 cb cb 3d 17 f1 75 3c f5 a2 c6 bd 91 19 cc bd
       0.09950937 0.015011094 -0.0969905 -0.09965814
000080 42 e8 56 3c bf a2 f0 ac 76 c1 56 bc f2 31 ea bd
       0.013116898 -6.8392787e-12 -0.013107648 -0.114353076
000090 0f c6 dc bc 28 7d 8b bc d6 a3 88 3d 1c 51 af bd
       -0.02694991 -0.017027453 0.06671874 -0.08560392
0000a0 1b 9b 04 bd ff 8e 67 3d 25 1b e3 bc b4 6b 4b 3d
       -0.032374483 0.056532856 -0.027722904 0.04966326
0000b0 fa 66 cc ab c2 b4 5a 3d 75 fb c6 bd 97 14 de 3d
       -1.4523654e-12 0.05339504 -0.0971593 0.10843771
0000c0 fd 0b e2 bd a0 07 0d ba 70 8f 16 bd a8 1c b2 bc
       -0.11037443 -0.00053798594 -0.036757886 -0.02174218
0000d0 4c b8 7f 3d ca 8a ee bb f6 db 16 bd d4 81 22 ad
       0.06243162 -0.0072797285 -0.036830865 -9.2374615e-12
0000e0 9b eb 78 3d bc ba 74 3c 85 7c 05 3e 92 fa 10 be
       0.060771566 0.014937099 0.13035782 -0.14158085
0000f0 aa 04 6a bd ba 37 cb 3c 26 a0 bd 3d a4 37 b7 3d
       -0.057133354 0.024806846 0.092590615 0.089461595
000100 a4 37 22 be 13 b0 13 bd ff 80 5c a8 93 7d 53 bd
       -0.15841538 -0.03605659 -1.2240425e-14 -0.05163343
000110 72 2a cc bd f4 6e 01 be 4a eb b0 3d d8 36 a8 3b
       -0.09969033 -0.12639982 0.08638628 0.005133491
000120 f7 5f af bd de 9b 29 3d e0 cb 82 bd 31 f3 31 bd
       -0.08563226 0.041408412 -0.06386542 -0.043444816
000130 f2 a0 95 bd 18 7a d0 ac 0d 2d 07 bd a8 e8 18 3d
       -0.073060885 -5.9252707e-12 -0.03300195 0.037331253
000140 8e 4a 89 3d 6a 61 3c bc 56 d9 ca bc 17 e9 73 3d
       0.06703673 -0.011497835 -0.024761837 0.059548464
000150 e7 74 86 bd b1 0b fc 3c d3 91 bc bd e3 5b a2 3c
       -0.06565266 0.030767294 -0.09207501 0.019819206
000160 1b 54 1c ad e8 de c7 3c f5 cb 53 3d 6b 65 47 3c
       -8.8862485e-12 0.024398282 0.05170818 0.012170176
000170 f8 e8 88 bc be a7 06 bd b4 61 2b 3d 73 d1 bd 3b
       -0.01671265 -0.032874815 0.041841224 0.0057927906
000180 f7 83 84 bd 18 d0 8a bd f1 2f 16 bc f7 b8 12 29
       -0.06470483 -0.06777972 -0.009166704 3.2578944e-14
000190 93 ca 49 3d ee a3 3d 3d 29 bc 2b bd c0 25 f7 bc
       0.049265455 0.046298914 -0.04192749 -0.030169368
0001a0 58 09 e1 3a a7 a5 a3 3d 1a 93 9e bc 05 90 42 bd
       0.0017168922 0.0799058 -0.019357253 -0.04750063
0001b0 f4 9b 96 bd 63 00 71 3c f9 0e e2 a9 13 38 b8 3d
       -0.073539644 0.014709565 -1.00390135e-13 0.0899507
0001c0 14 5d 06 3d 11 19 47 3d 20 b4 d7 bd 17 3f 81 3d
       0.03280361 0.04860789 -0.10532403 0.063108616
0001d0 41 e5 5d 3d f0 e3 34 bc 9c 16 c8 3d f1 68 ca bd
       0.05417371 -0.011040673 0.097699374 -0.09883297
0001e0 94 b3 b9 3d 8a 17 6f a8 63 24 ad bd b3 22 0d bc
       0.09067455 -1.3272269e-14 -0.08454206 -0.00861423
0001f0 9b c2 35 3d 98 45 0d 3d b0 05 1c bd 75 a0 2f bd
       0.044375043 0.034490198 -0.03809136 -0.042877633
000200 ab 04 86 3d af 2b 2e bc 89 1a a9 3d fe 45 a3 3d
       0.06543859 -0.010630532 0.08257014 0.07972334
000210 f1 28 2e a8 de 56 fc bc 36 9a b4 3c ed 2a c6 3c
       -9.667818e-15 -0.03080314 0.02204619 0.02419039
000220 c8 6e bc 3b 65 26 61 3d 43 a0 82 3c 41 20 85 3c
       0.005750511 0.054968257 0.01594556 0.016250731
000230 50 db 77 3d aa af c0 3c bf 99 06 3c 13 c9 b4 2a
       0.060511887 0.023521263 0.008215367 3.2113946e-13
000240 ed 7f 38 3d 39 b0 01 3d 94 bd b4 3c 11 70 68 3c
       0.045043875 0.0316622 0.022063054 0.014186875
000250 cf 1f 17 3d c2 a3 4c bc ab cb aa bc e6 c8 41 3d
       0.03689557 -0.012490215 -0.02084907 0.047310732
000260 e3 ad 0f 3d 4f 27 70 bd 0b c2 c5 a6 73 e9 fd 3c
       0.03507794 -0.058631238 -1.3722216e-15 0.030995106
000270 c0 0e 93 b9 d6 40 92 bc c2 49 c8 bc 60 fa 89 bb
       -0.00028049015 -0.017853182 -0.024449233 -0.004210755
000280 f4 41 fa 3c df 4f 82 3c ad 41 96 3c b4 f2 83 3d
       0.030549027 0.015907226 0.018341864 0.06442776
000290 bf 17 f1 3c b8 e4 6c a7 a8 e3 5d bd 34 55 47 3c
       0.029430268 -3.2875568e-15 -0.054172188 0.01216631
0002a0 25 08 72 bc db e9 6a bd ab 25 2e 3d 17 39 c5 3b
       -0.01477245 -0.05735193 0.04251639 0.0060187685
0002b0 2a bd 3f bc b2 98 ab 3d 4b 67 92 bc 58 9c 6b 3d
       -0.011702815 0.08378734 -0.01787152 0.057522148
0002c0 c6 57 e4 a8 9b 36 a4 3d ec 81 5f bd 98 d3 35 bd
       -2.535115e-14 0.08018228 -0.054567263 -0.044391245
0002d0 6e 4e 44 bd f8 a0 22 3d c3 37 0a 3d ac 5b a9 bb
       -0.04792636 0.039704293 0.033744585 -0.005168399
0002e0 04 86 6a 3c c9 cc ae bb 2a de db 3d 22 5b 8f 28
       0.014314178 -0.005334471 0.10735734 1.5915712e-14
0002f0 68 4b bc 3d 12 d1 be 3d d2 0a f5 3d f4 71 3b bd
       0.0919407 0.09317221 0.119649544 -0.04576297
000300 d4 39 85 3d 58 06 4e bd b3 a1 35 3c 4d 72 b0 3d
       0.065051705 -0.05029902 0.011085915 0.08615551
000310 06 68 a0 3b 7d d6 e2 3d 07 b4 a8 a6 9d 19 10 3c
       0.004895213 0.11076067 -1.1706138e-15 0.008795169
000320 a2 60 a5 3d 59 f7 df 3d c7 d7 f2 bc 7b 0c 03 3e
       0.08075072 0.1093585 -0.029643906 0.1279773
000330 8f 8f bf 3b 7d 66 1d bd 44 84 0f 3d 7d df 65 bd
       0.005845971 -0.03842782 0.035038248 -0.05612134
000340 a3 4e 38 bb 80 76 1a 2f b2 21 04 bd ae 74 18 3d
       -0.0028123043 1.4048318e-10 -0.032258697 0.03722065
000350 fe 34 76 bd 76 ae ac 3c 4d ef 0a 3c 61 44 3c 3d
       -0.06010913 0.021079283 0.008479905 0.04596365
000360 64 3b 22 3d 2e ff 1d 3d 14 92 e7 3c 80 af 80 bd
       0.03960742 0.038573436 0.028267898 -0.06283474
000370 9c 79 98 a8 9c 6c c7 bc 79 a4 9b bd 19 1c a2 bd
       -1.692813e-14 -0.024343781 -0.0759973 -0.079155155
000380 77 1e 76 bd e2 85 ca bd 1d 98 a0 3d 80 d3 9a 3b
       -0.060087647 -0.09888817 0.07841513 0.00472492
000390 04 92 0d bd 36 83 d9 bd 3c 98 de bc ac fe 5b aa
       -0.03456308 -0.106207296 -0.0271722 -1.9539464e-13
0003a0 8c 57 c0 3d a7 1a ce bb 2a b5 43 3e 58 ff 12 be
       0.09391698 -0.0062897983 0.19112077 -0.14355218
0003b0 43 fb c6 3d f8 45 b1 bd 31 2b 71 bd 09 77 46 bc
       0.09715893 -0.086559236 -0.05887908 -0.012113341
0003c0 8e 6f 11 be 00 ad 38 3c 91 60 17 ad 26 99 55 3d
       -0.14202711 0.011271715 -8.604798e-12 0.052148007
0003d0 14 1e 23 bd b2 02 09 be b2 56 f3 bb 35 b1 b5 b9
       -0.039823607 -0.13379934 -0.0074261064 -0.0003465504
0003e0 e6 bb 8b bd f9 62 5a bd 45 d2 9a bc 28 74 e1 bd
       -0.06822948 -0.053317044 -0.018899092 -0.11008483
0003f0 84 a6 8d 3d da f1 07 29 b8 4d 69 ba f9 10 22 bd
       0.06916526 3.0185794e-14 -0.00088998256 -0.039566968

gru.weight_hh_l0 f4 [192, 64]
000000 04 30 b7 bd 9a 89 46 bd f9 f1 ff 3c 5d be 8b bd
       -0.08944705 -0.04847107 0.031243311 -0.06823418
000010 ba 08 7c bd 92 89 fc bd e0 90 8f bd ea b4 cf 3c
       -0.06153176 -0.12330927 -0.070100546 0.025354821
000020 1c 39 07 bd ee 5b 8d bd a2 64 17 bd 3b da 32 3c
       -0.033013448 -0.069023 -0.036961205 0.010916288
000030 b1 04 60 3d 25 11 c7 bd 31 c9 06 3c 68 1b b4 bb
       0.054691974 -0.09720067 0.008226679 -0.005496431
000040 d0 e6 10 bd 5e 07 87 bd 53 44 92 3d 38 de 00 3d
       -0.03537637 -0.06593202 0.07141938 0.031461924
000050 2c 8a 67 bd 4c e4 66 bd f6 aa 77 bc 78 de fb bb
       -0.056528255 -0.056370065 -0.015116444 -0.0076864325
000060 55 a6 a4 bd 59 a5 3b bc 83 d0 03 3d dc e9 48 3d
       -0.08039538 -0.011452996 0.032181274 0.04905115
000070 30 82 f7 bc a6 71 53 bd 3b 6a 33 bc 20 3c 0b bd
       -0.030213445 -0.051622055 -0.01095062 -0.033992887
000080 c0 18 3a 3d e1 66 bb 3d 75 bf a8 bd 09 ba 2f bd
       0.04543376 0.09150482 -0.082396425 -0.042902026
000090 c4 00 db 3c 5e 12 63 3d 51 96 86 bd 4f ba ca ba
       0.026733764 0.05543744 -0.06571639 -0.0015466901
0000a0 63 74 bf 3b db 7d 01 bd 22 03 46 bd 4b b3 26 bc
       0.005842732 -0.031614166 -0.04834283 -0.010174583
0000b0 2d ab 9e bd 79 fa 4e bd 59 be 81 bc bd 19 50 3d
       -0.07747493 -0.050531838 -0.015837835 0.050805796
0000c0 04 26 06 bd 5e 9d 9a 3d cc ae 2c 3d ff 86 d3 bd
       -0.0327511 0.07549547 0.042158887 -0.10328483
0000d0 e1 bd 83 bc 2f 01 53 3c 3b 5b bb bc 65 ea e9 3c
       -0.016081752 0.0128787 -0.02287065 0.02855415
0000e0 6b b5 db bd 4c 38 25 3d d6 10 7d 3d fc 25 59 3d
       -0.10727962 0.040336892 0.061783634 0.05301474
0000f0 32 7d b0 bd f9 5f 99 bc 18 dd 28 bb e5 4e ef 3c
       -0.08617629 -0.018722521 -0.0025766548 0.029212425
000100 0e c7 67 3c aa 76 f6 bc 92 33 a7 3b 64 bd 6f bb
       0.014146579 -0.03008588 0.005102583 -0.0036581391
000110 b2 b1 d4 3c fd a9 a5 ba cc ab 0e 3c 77 aa 18 3d
       0.025963638 -0.0012639161 0.008707952 0.037271943
000120 e3 97 c6 bc a6 be 3b 3c 50 77 07 3d 56 a5 a7 bc
       -0.024242347 0.011459028 0.03307277 -0.02046458
000130 bc 7f fd bc 76 52 19 3d 68 3c 95 bc 0d 1a 9c bc
       -0.030944698 0.037432157 -0.01821728 -0.01905539
000140 a9 7d a8 3c bb a9 ad 3c 99 55 ac bb ae cf bc 3c
       0.020567732 0.021199098 -0.0052592275 0.023048248
000150 ef cd e9 3c 14 34 ae 3c 60 25 05 bd a9 1d 91 ba
       0.02854058 0.021265067 -0.032506347 -0.0011071461
000160 b5 6d cf 3c c4 35 d5 ba 6d 72 5e 3b cb e5 07 bd
       0.025320867 -0.0016266634 0.0033942715 -0.033178132
000170 75 81 6f 3c 1d 7a 09 3d 5b 72 b9 3c 77 35 90 bc
       0.014618267 0.033563722 0.022637537 -0.017603619
000180 a1 71 bf bc 20 f3 86 3b f7 f9 89 3b d7 8c c2 bc
       -0.023369612 0.004118338 0.0042107063 -0.023748798
000190 f5 00 be bc d8 8f 9a bc fe 6c e0 3c 02 13 79 bb
       -0.023193816 -0.018867418 0.027395722 -0.0038005714
0001a0 f4 11 ae bb c7 40 c5 ba 1c fb 4b 3c d0 fc 07 bc
       -0.005312199 -0.0015049212 0.012450006 -0.008300021
0001b0 b6 f7 15 3c f9 ab 0e bd 26 24 55 bc f1 26 93 3b
       0.009153297 -0.034831975 -0.013009107 0.004490726
0001c0 90 2e 92 bb 8f 5d 0d bb f1 91 03 bd b1 a4 d7 bc
       -0.004461117 -0.0021570658 -0.032121602 -0.026323648
0001d0 ab 94 57 bc 1e c6 92 bb ee d3 92 bc 47 51 51 bc
       -0.013158004 -0.004479184 -0.017923322 -0.012775726
0001e0 53 5e 07 3d 35 6d 0d 3b 2c 03 3c bc 60 0f fb bc
       0.03304894 0.0021579985 -0.011475366 -0.03064698
0001f0 cf dd 0a 3d 80 33 cc 3c b2 7f 94 bc b3 3e e0 bc
       0.03390294 0.0249269 -0.018127296 -0.027373647
000200 50 f7 63 3c c8 f4 b7 bc f8 3b 33 3c 6b 29 45 3c
       0.013913944 -0.022455588 0.010939591 0.012033801
000210 20 30 5f bd db c3 36 3c 6d 74 83 3c 38 fc d0 bc
       -0.054489255 0.011155094 0.016046727 -0.025510892
000220 86 bd a0 3c 1e e8 03 bd 08 50 0d bd 64 22 95 bc
       0.019621622 -0.032203786 -0.034500152 -0.018204875
000230 6a e9 3c 3d 66 07 3b bc c7 15 7c bc 12 91 b7 3c
       0.04612104 -0.011415338 -0.0153860515 0.022408042
000240 07 41 d9 bc f8 19 17 bc fd 8b 4e 3d a9 ee d0 bb
       -0.026520265 -0.0092225 0.050426472 -0.0063761068
000250 bb 81 83 3c c1 63 d0 bc c5 29 bb bb ae d5 f6 3c
       0.016053071 -0.025438191 -0.0057117664 0.030131187
000260 3a 5a 0c bd b8 eb 93 bc a9 e9 4f 3d 6f 3b 17 3d
       -0.034265734 -0.018056735 0.050759945 0.036921915
000270 ca ac 20 bd 30 9a 7f 3c 27 bb e3 3c 55 be 79 3c
       -0.039227284 0.015600726 0.027799202 0.015243133
000280 dc a1 1c 3d 14 c4 59 3d a4 1e 2b bc 61 a3 e6 3c
       0.0382403 0.05316551 -0.010444317 0.028154077
000290 ac ce 94 bc 3c 43 5b bc ea f4 44 bc 59 73 2f 3c
       -0.018164955 -0.013382729 -0.012021283 0.010708653
0002a0 6a 74 d6 ba 79 a2 07 3d 59 5c 0c 3c f1 14 29 bc
       -0.0016361598 0.03311393 0.008566939 -0.010319934
0002b0 ce 9f 36 bd b1 ee 00 bc 8d e9 95 3b af 22 cb 3b
       -0.044585995 -0.0078694085 0.0045749606 0.006199203
0002c0 bc 74 58 3d 71 81 a9 bc dd ad d9 bb 3c 3f 78 bc
       0.0528457 -0.020691605 -0.0066430406 -0.015151795
0002d0 89 8e 61 3c c5 77 52 bd 61 89 12 3d 18 e5 a6 3c
       0.013766893 -0.051383752 0.035775546 0.020372912
0002e0 72 3a a8 3c 75 9c aa bc 32 b4 85 bb 95 4a af 3c
       0.020535681 -0.020826558 -0.004080319 0.021397868
0002f0 77 df fa 3b 42 e6 69 bd a4 cb 94 3c c0 4c 71 bd
       0.0076560336 -0.057104357 0.01816351 -0.058911085
000300 ac 4c 61 bc 60 7b 56 bc e8 26 cb 3c c0 15 da 3a
       -0.01375119 -0.013090938 0.024798825 0.0016638562
000310 b1 16 6f bc bf 43 24 38 15 dd 4b bc 46 bd 04 bc
       -0.014592812 3.916374e-05 -0.012442847 -0.008101767
000320 46 d8 89 3b 0c e6 34 bc a1 91 12 bd 92 56 98 3b
       0.00420669 -0.011041176 -0.035783414 0.004648992
000330 bf e6 5b 3b d1 25 e5 bc 13 38 07 ba fb bc 1d bc
       0.0033554283 -0.027972134 -0.0005158197 -0.009627576
000340 bf 08 0b 3a 87 f3 4a bc 50 79 31 bc 6d 97 34 3c
       0.00053037325 -0.012387163 -0.010832146 0.011022431
000350 48 eb d1 bc 9a f5 b8 bc 6f 18 2e b9 c8 45 f1 bb
       -0.025624886 -0.02257805 -0.00016603035 -0.007363055
000360 d6 cc 88 bc 89 a0 1e 3b 15 6f 2e 3c 30 d0 5a 3c
       -0.016699236 0.0024204573 0.010646601 0.0133553
000370 4d 95 e7 ba ff a7 d0 bc 1b d6 90 3b 10 bf 23 bc
       -0.0017668396 -0.025470732 0.0044200546 -0.009994283
000380 ea e4 0f bb 0d 8b f6 3b 9a df 3a 3b 94 64 e7 ba
       -0.0021956512 0.0075239004 0.0028514625 -0.0017653876
000390 1a eb 99 bb 7b 13 87 3c 76 3d 34 bc 93 06 7f 3c
       -0.0046972157 0.016488781 -0.011000982 0.015565532
0003a0 b1 6a 81 3c 91 10 f4 ba 4d 4a 72 bc f0 71 8f bb
       0.015797945 -0.001862066 -0.0147882225 -0.004377596
0003b0 d2 02 f6 bb ec ab 72 bc 68 3d 68 3c 8c ba 26 bc
       -0.0075076604 -0.014811497 0.014174797 -0.010176312
0003c0 31 30 48 bc 81 ba 87 3c c8 6b 02 3b 1c 07 f0 bb
       -0.012218521 0.016568424 0.0019900668 -0.0073250663
0003d0 c1 86 17 3c 97 10 90 3c 3c e9 3c bc f1 07 89 3c
       0.009248436 0.017586036 -0.011530217 0.01672742
0003e0 b8 32 f4 bc 43 d2 3f 3c 24 69 f0 3c e4 da 8d 3c
       -0.02980934 0.011707845 0.02934701 0.01731629
0003f0 bf 14 c7 bc 93 ce 39 bc 67 89 d0 3c aa a7 95 3a
       -0.024301885 -0.011340755 0.025456144 0.0011417766

gru.bias_ih_l0 f4 [192]
000000 11 3d 94 bd 24 5d a4 3d ca 51 e1 bd 43 1b 8b 3d
       -0.0723821 0.08025578 -0.11001928 0.06792309
000010 f2 d0 7b 3d 41 8e ba 3d b5 31 ae 3c 6c 7d bf bd
       0.061478563 0.09109164 0.021263937 -0.09350094
000020 d1 74 ca bd 27 55 26 bc 0d 94 42 bc ec b8 87 bd
       -0.09885562 -0.010152138 -0.011876118 -0.06627068
000030 64 0e 6e bd 30 b6 bf bd 9b 15 37 3d 98 e1 8e bb
       -0.058119193 -0.093609214 0.04469834 -0.004360389
000040 28 eb 2d bd eb dd b8 bb be 54 50 bd 0e dd 3a 3d
       -0.04246059 -0.005641689 -0.050862066 0.04562097
000050 4a 60 c7 3b e2 83 a1 bd b4 31 56 3d 2c 71 d5 bd
       0.0060844766 -0.07886483 0.052293494 -0.104219764
000060 7a 1f 1a bd 94 c2 ca 3c 26 72 84 3d 2b aa 72 bd
       -0.037627675 0.024750985 0.064670846 -0.059244316
000070 ed b8 7c 3d 5d 00 3e bd 38 0e 25 3b 0f 2b 89 bd
       0.061699796 -0.046387065 0.0025185477 -0.06697666
000080 fe f1 61 3d 95 26 2d bd 62 d6 18 3d c6 86 b0 3d
       0.055162422 -0.042273123 0.037313826 0.08619456
000090 36 d0 82 bc 84 ab ef bc 79 27 9b bd 10 90 9d bc
       -0.015968423 -0.02925659 -0.07575888 -0.019233733
0000a0 43 2c ca 3d 9d 5b 01 bc da fd 6f bd b1 9e 2f bd
       0.098717235 -0.007895377 -0.0585917 -0.04287595
0000b0 97 aa 21 3d b4 8a 81 bd cb 8f b6 bd 49 7e 99 bd
       0.039469328 -0.06325284 -0.08914145 -0.0749479
0000c0 cc da 3b 3d 41 7c e6 ba 04 b9 90 bb 60 4c 4d bd
       0.045862958 -0.0017584638 -0.004416587 -0.050121665
0000d0 5e 6a c7 3c 64 6f ab bd 94 3b 46 3d cc ac 71 3b
       0.024342712 -0.083708555 0.048396662 0.0036876677
0000e0 31 53 94 bd 33 b8 48 3b 92 fa eb bc b6 89 b4 3b
       -0.0724243 0.003062737 -0.028806005 0.0055095805
0000f0 87 1a 32 bd 5d d7 70 bd a4 d4 06 bd a1 d8 8c bd
       -0.04348233 -0.058799136 -0.032917634 -0.06877256
000100 6f 02 91 bd 92 44 ca ba b2 a8 66 3c 6a 25 1d bd
       -0.07080542 -0.0015431812 0.014078306 -0.03836576
000110 58 5e aa 3d 98 a5 77 3d 36 23 bb 3d 42 02 4e 3d
       0.08318776 0.060460657 0.09137575 0.050295122
000120 d2 54 a8 3c 00 3a 16 bc e5 d7 a1 bb f7 36 ec 3c
       0.020548258 -0.009169102 -0.0049390667 0.028834803
000130 9a 80 09 3d 03 25 d5 bc 34 1d 68 3d 95 87 4f bc
       0.03356991 -0.026018625 0.056668475 -0.012666603
000140 51 9a 20 3d f3 50 a6 3d ed a5 9b 3d cc eb 89 bc
       0.039209668 0.081209086 0.07600007 -0.01683607
000150 54 8c 31 3d cc 47 85 3d c7 70 8a 3d c4 4e 22 bd
       0.043346718 0.06507835 0.06759792 -0.039625898
000160 a2 75 36 bd 5b da 96 3d 37 8e 5a 3c 08 bd 89 bc
       -0.044545777 0.07365867 0.013339571 -0.01681377
000170 d3 71 98 3d 37 22 c0 3c f9 1e 94 3d 88 9b 66 bd
       0.07443585 0.023453815 0.0723247 -0.05630067
000180 32 37 ff bc dc 25 bb 3d e5 03 d3 3c 6e 28 31 3c
       -0.031154249 0.091380805 0.025758693 0.010812862
000190 4a d1 2f 3d 28 f7 34 3d db 29 f2 bc d1 58 e4 3c
       0.042924203 0.04418102 -0.029560974 0.027874382
0001a0 74 9d 28 3d ea bd d2 bc ff 9d ad 3d 7a b9 de 3c
       0.041165784 -0.025725324 0.08477401 0.027188051
0001b0 70 33 cf 3d 4f d5 3c 3d 81 c6 a8 bc 9f 03 8d bc
       0.10117233 0.046101864 -0.020602467 -0.01721364
0001c0 fe 33 05 3d 18 f9 4f bd 85 32 8f 3d a0 c8 53 3d
       0.032520287 -0.050774664 0.06992058 0.051705003
0001d0 26 4d 02 3e dc 20 67 3b dd 83 f7 3d 80 2f 8c 3c
       0.12724742 0.0035267388 0.12085698 0.017112494
0001e0 ab 84 af 3d f1 ad ce bd df 95 b0 bd 6d 22 f8 bc
       0.08570226 -0.100917704 -0.08622336 -0.030289853
0001f0 db 9b be 3d 32 2f 01 3d d2 44 f7 bb 6d 2b 8c 3d
       0.09307071 0.03153915 -0.007546046 0.0684422
000200 10 37 ef 3c 6b 10 3c 3d 8c 7b aa 3b 37 3d db 39
       0.02920106 0.045914095 0.005202716 0.00041816544
000210 6b 8b 1b 3d 65 7f 4e 3d de 34 b9 3c 52 ae 94 3d
       0.037974756 0.05041446 0.022608217 0.072598115
000220 bc 89 1d bb 6f f4 10 3d 39 91 9a bd 6d 77 7b 3c
       -0.0024038395 0.03538936 -0.0754723 0.015348298
000230 89 1a 86 3d b6 2e 0f 3d f3 82 7d bd 13 8e 78 bd
       0.0654803 0.034956656 -0.06189246 -0.060682368
000240 1b b7 c6 bd af 36 88 3c dd a9 83 bc 04 17 7e ba
       -0.09702893 0.016627638 -0.016072208 -0.00096927607
000250 72 97 39 bd 92 5e 1b bd 84 0e 84 bd 94 5e 3b 3d
       -0.045310445 -0.037931986 -0.06448081 0.045744494
000260 90 7f ac 3d f4 c5 1f bd 8c e5 7e bd 8f d2 f5 bc
       0.08422768 -0.039007142 -0.06223063 -0.030007629
000270 0e 46 3d bd 49 2c 43 3d 2e fc 99 3c ea fe a8 bb
       -0.046209387 0.047649655 0.018797006 -0.0051573412
000280 2e 5b a6 bd 6b fd 9c 3d 5c 41 c8 3d 91 65 92 3c
       -0.0812286 0.07665523 0.09778091 0.017870696
000290 08 86 96 3c dc 95 7e bd e0 cf 02 3d 53 f7 40 3c
       0.018374458 -0.062154636 0.031936526 0.011777717
0002a0 07 5e fa 3a a3 7e 5c 3d 38 c0 ad 3d d4 6d 32 bd
       0.0019101509 0.053831708 0.084839284 -0.04356177
0002b0 84 27 5b bb 07 af bf bd b5 cd b6 bd 31 e5 be 3c
       -0.0033440301 -0.09359556 -0.08925954 0.023302646
0002c0 c0 e2 f9 bc 84 1f ff bc f2 c5 c8 bd 76 55 8e bd
       -0.03050363 -0.031142958 -0.0980338 -0.06949894
0002d0 a4 f2 48 bd 4b 06 89 3d 39 0c 47 3d 6e 7f c8 bc
       -0.049059525 0.066906534 0.04859564 -0.024474826
0002e0 83 fb b4 bd 97 bc 74 3c f8 1f 98 bd f2 ef db bc
       -0.088370346 0.014937541 -0.074279726 -0.026847813
0002f0 40 88 cf bc 2d ec a3 bd 78 5a 8d 3d 44 e5 c7 bc
       -0.025333524 -0.08004031 0.06902021 -0.024401315

gru.bias_hh_l0 f4 [192]
000000 8c bf 94 bd db 37 a0 3b 82 31 65 bc 11 ed 54 3d
       -0.07263097 0.004889471 -0.013988854 0.051983897
000010 08 7b 0c 3d b4 1a 22 3d 2a 5d b8 3c fc 87 c6 bc
       0.03429702 0.039576247 0.022505362 -0.024234764
000020 e5 0b 80 bd 9f db 99 bd 4f d2 78 bd 8f 7d 80 3c
       -0.06252269 -0.075125925 -0.06074744 0.015684871
000030 31 d6 ca 3b a7 96 7a bd 4a d9 5c 3c b8 5b e2 3c
       0.0061900844 -0.06117883 0.01347954 0.027631626
000040 1d 13 ce bd 18 2a 96 bd 25 de 9d bc 20 e1 fb 3b
       -0.10062239 -0.073322475 -0.019270966 0.007686749
000050 c8 f9 37 3d 81 4b 60 bd c4 9f c6 bd c8 ab bc bc
       0.044915944 -0.054759506 -0.096984416 -0.02303113
000060 ae e9 4b 3d 62 46 86 bc 16 84 30 3d 84 b6 ea bd
       0.0497834 -0.016390983 0.043094717 -0.11460593
000070 16 25 86 bd 62 86 0e be 4b cc d9 3a 73 d7 ec bb
       -0.06550042 -0.1391845 0.001661667 -0.007227832
000080 fb d8 a0 bb 00 d6 aa bd ce cc 69 bd 55 1d a1 bd
       -0.0049086786 -0.083415985 -0.057080083 -0.07866923
000090 f3 3e f4 3c 6c b7 9c bd b8 e2 6d bd 3c 91 6c bd
       0.029815173 -0.076521724 -0.058077544 -0.057755694
0000a0 09 ab aa 3c 05 36 8f 3d 33 6c 51 bd 96 65 54 3c
       0.020833509 0.06992725 -0.051128577 0.012963673
0000b0 b9 8b 6c bd 3b 9b 81 bd 6d fd 1d 3c 4b 3d 25 bd
       -0.057750437 -0.06328436 0.009642941 -0.040341657
0000c0 07 07 81 bc e0 47 cf bd e2 ed 90 bd bb 41 76 3d
       -0.015750421 -0.10121131 -0.070766225 0.06012128
0000d0 02 f8 ac bd 7a f7 71 3d 1a f4 47 3d d4 35 12 3c
       -0.08445741 0.059073903 0.048816778 0.008923966
0000e0 8e 27 1a bd 63 8d bb bd d1 7e a8 bd 53 6f aa bd
       -0.03763538 -0.09157827 -0.08227313 -0.08322015
0000f0 1f 2d b6 3d 2b 72 93 3d dd 68 70 3d b5 b4 83 bc
       0.08895325 0.0719951 0.058693755 -0.016077379
000100 66 2c 1f bd 55 9d 53 3d 47 d3 01 3e fb 20 ce 3d
       -0.0388607 0.051663715 0.12678252 0.10064884
000110 0b 9e 3c 3d 3a f5 76 bd ea 32 bf 3d a8 27 06 3d
       0.04604916 -0.06029246 0.09335883 0.032752663
000120 02 ea aa 3c 63 83 9e 3d bf 36 f9 bc 8c c1 05 bd
       0.020863537 0.07739904 -0.030421613 -0.032655284
000130 01 5b 97 3d e3 91 5c 3b 84 b0 10 3d e8 26 65 3c
       0.073904045 0.0033656291 0.03532459 0.013986327
000140 9d 6d a8 3d c2 d9 0b 3d ed 0f 95 3d b2 7c 32 3b
       0.08224032 0.034143217 0.07278428 0.0027234969
000150 8f 2b cb ba a7 23 c5 3d c8 df 1e bd 92 f1 4b bd
       -0.0015500652 0.09625941 -0.038787633 -0.049790926
000160 c3 30 ab bb 44 4e 00 3e 0f 77 5d bc 06 5a 05 3d
       -0.0052243187 0.12529856 -0.013517155 0.032556556
000170 30 76 a0 3d 6c f2 b2 bb a2 c1 6b bd 83 dd 05 bd
       0.078350425 -0.005461028 -0.05755771 -0.032681953
000180 a2 e4 cf bc 45 5d 1e bd 34 4a 2e bd 5d e4 eb 3c
       -0.025377575 -0.038663168 -0.042551234 0.028795416
000190 a4 37 fa 3d 4e 84 97 3c 21 c4 0c bd e5 4e ce 3c
       0.12217644 0.018495705 -0.03436673 0.025184104
0001a0 82 7a 55 bc cc 1f ec 3c 88 63 12 bd b9 8f ec 3d
       -0.013029696 0.028823756 -0.03573945 0.115508504
0001b0 ff 94 bb 3d 12 3a b6 3d 5f 62 12 3a 4f 60 01 bd
       0.09159278 0.08897795 0.00055841164 -0.031585988
0001c0 c0 93 b4 3d 2a 64 0e bc bf e2 b0 3d aa 28 da bc
       0.088172436 -0.008690873 0.086369984 -0.026630718
0001d0 2a 9a b4 3c 52 c1 21 3d e6 e6 08 3e 1b 1c 63 3d
       0.022046167 0.039491005 0.13369331 0.055446725
0001e0 bc 08 ff 3b fa de 63 bd 2b 17 96 bd c1 2c 94 bc
       0.0077830236 -0.05563257 -0.07328638 -0.018087747
0001f0 8d aa 82 bd ac 6d 8f bb a6 e4 70 3d 14 94 bd bc
       -0.06380186 -0.0043770876 0.058811806 -0.023141898
000200 e0 f9 81 bd 35 d9 df 3d 79 68 5f 3d 4a 24 8c bd
       -0.06346488 0.10930101 0.054542992 -0.06842859
000210 78 da 4c 3c 4d d2 c7 bd da 70 5c 3d 93 30 2e bd
       0.012503259 -0.097569086 0.05381856 -0.042526793
000220 73 37 4a 3d d3 50 f6 bb 7b 4b c6 bd ac 60 aa bd
       0.049369287 -0.007516959 -0.096823655 -0.0831922
000230 29 4f f1 3c ae df c0 bd d2 7d 82 3c b2 bc 09 3e
       0.029456692 -0.094176635 0.015929136 0.13450888
000240 fd 4f db bb 1c 17 8b bd df 8a 08 3d c6 40 8b 3d
       -0.006692885 -0.06791517 0.033335563 0.06799464
000250 b4 9e 18 3c f8 56 6c bd d5 75 28 3d 09 1b cd bd
       0.0093151815 -0.057700127 0.041128 -0.10014922
000260 73 28 f0 bd 78 d4 0c 3d f6 6b d5 bd 1c 9e de 3d
       -0.11726465 0.034382313 -0.104209825 0.10870001
000270 77 8e c0 bd 2b 74 70 3d 4f c3 29 bd 85 2d 1a bd
       -0.09402173 0.058704536 -0.041446026 -0.037641067
000280 99 45 67 3d 88 7e e1 bc cd 1e 00 be 5f 09 97 bd
       0.056462858 -0.027526155 -0.1251175 -0.07374834
000290 bb e3 8d bd 3e d5 c0 3d fc 20 ba bd cb 9c a1 bc
       -0.06928202 0.09415673 -0.090883225 -0.019728085
0002a0 89 c1 47 3c 0c b4 31 bd 8a 37 b9 bc 58 fe 12 3d
       0.0121921385 -0.043384597 -0.02260949 0.035887092
0002b0 3c c4 d9 bb f5 13 91 bc e9 5d d9 bd 80 67 d0 3d
       -0.0066457074 -0.017709712 -0.10613615 0.10175991
0002c0 13 98 e2 3d 30 da 87 bd 41 a7 ac 3c 81 d5 ac 3c
       0.11064162 -0.06633413 0.021075847 0.0210979
0002d0 ab 55 6b bd b8 a9 07 3c d8 e2 29 3d 41 d3 8c bd
       -0.057454746 0.00828021 0.0414761 -0.06876231
0002e0 88 0d 25 3d ef 1d 8a bd 27 cd 7e 3d e3 75 00 3d
       0.040296108 -0.06743991 0.062207367 0.031362426
0002f0 a1 2e cf 3c f3 c2 c5 3d d7 dc 9e bd ea 39 15 3d
       0.02529079 0.09656324 -0.077569656 0.036432184

conv_layers.0.0.weight f4 [56, 11, 2]
000000 33 29 91 b9 2a d8 30 aa 2a 44 16 bd 38 73 ce 3d
       -0.0002768725 -1.5706937e-13 -0.0366861 0.1008057
000010 ab 0a 1d be db f6 4e bc 96 85 b7 3c 59 35 2e 3e
       -0.15336101 -0.012632097 0.022402566 0.17012538
000020 f1 d0 dd 3d 16 8b d3 bd d4 50 41 bd 85 83 41 3d
       0.10830868 -0.10329263 -0.047196224 0.047244567
000030 85 c8 d7 bd 2b 60 60 bd d6 39 4f 3d 4f 0d 47 be
       -0.10536293 -0.054779213 0.050592266 -0.1943867
000040 2b 8f 44 be 25 03 4f 3e a9 1b 3c be 71 ac 73 3e
       -0.19195239 0.20216043 -0.18369927 0.2379625
000050 db 80 96 3c b4 0b d3 3c 49 e5 b2 ae 35 c9 4b 26
       0.01837199 0.025762416 -8.135232e-11 7.070246e-16
000060 77 10 2b be 1c f9 34 bd 27 93 b1 3d cc 01 e9 bd
       -0.167055 -0.04418288 0.08670645 -0.11377296
000070 c3 41 d2 bd 07 04 18 be 84 78 14 3e 7d 03 30 3e
       -0.10266449 -0.14845286 0.14499098 0.1718883
000080 42 37 08 3b 2c 10 e6 3d f6 4b 1d be ea 67 4d 3d
       0.002078489 0.11233553 -0.15361008 0.05014793
000090 ad 3f 41 3e f1 f5 5d be 77 cd 6e bd a2 ff 2f 3d
       0.18871947 -0.2167585 -0.058301415 0.0429684
0000a0 e2 fa 87 3d 0d 0e a9 bd 89 0b d9 3d 0c 75 7e bc
       0.06639649 -0.08254633 0.10597903 -0.015530836
0000b0 f5 01 59 35 d5 c2 42 28 86 cc 00 3e a0 55 93 bd
       8.084165e-07 1.0811411e-14 0.1257802 -0.07194066
0000c0 c8 60 bc 3d 7b 50 45 bd 29 9e 34 be e7 b2 2b 3e
       0.09198147 -0.048172455 -0.17638458 0.16767465
0000d0 e0 bd 78 3d b1 db ee bc 4a 59 71 3e 33 e9 bc 3d
       0.060727954 -0.029157491 0.23569217 0.09224167
0000e0 86 67 6a bd aa fa 5a 3e 53 f4 fd bd ad 50 a8 3d
       -0.057227634 0.21384683 -0.12400117 0.08218513
0000f0 77 d4 07 bd 50 68 9d 3d 0e 43 69 3e 16 68 38 be
       -0.033161607 0.07685912 0.22779486 -0.18008456
000100 d8 cd 94 bd bc 97 30 be f2 09 48 2f 21 fc 89 b4
       -0.07265824 -0.17245382 1.8193427e-10 -2.5701686e-07
000110 7c 09 3a 3e 84 cc 45 bd 46 54 6f bc fe df 5a 3e
       0.1816768 -0.048290744 -0.014607495 0.21374509
000120 be b0 b9 3d a8 ee 04 be 1c ef e6 3d 01 04 14 bc
       0.09066914 -0.12981665 0.11276075 -0.009034158
000130 a1 4d dd 3d 17 2e f7 bd 64 37 ce bd b4 d1 cf bd
       0.10805822 -0.12069338 -0.10069159 -0.101474196
000140 3b 46 a3 bc 46 d5 04 bc 72 29 a4 bd 10 07 11 be
       -0.01993095 -0.008107489 -0.080157176 -0.1416285
000150 5d 6f eb 3d df 95 d2 3c 52 2e df 3b 2b 50 2b 3e
       0.1149585 0.02570623 0.0068109417 0.167298
000160 4e f0 61 2e ce d9 20 a7 c0 1d 04 be b9 2b 01 3e
       5.137251e-11 -2.2322533e-15 -0.12901974 0.12614335
000170 03 34 ac bc c2 35 c9 3d 07 29 29 3e 74 9b ae 3d
       -0.021020895 0.098247066 0.16519557 0.08525744
000180 e3 1c 1a 3d 03 39 84 bd 0e ce 97 3d f2 39 19 3e
       0.037625205 -0.064561866 0.07412349 0.1496351
000190 fa 52 9e 3c dc c7 3e bd 67 44 04 bc 96 23 0c 3d
       0.019326676 -0.04657732 -0.008072949 0.034213625
0001a0 b7 b0 76 3d 37 ea 3b 3e 57 ff 05 3e d9 a0 05 be
       0.060227122 0.18351065 0.13085686 -0.1304964
0001b0 27 d1 7e bc 4a ba 5e bc cb 3f c2 a6 42 20 4c 38
       -0.0155527955 -0.013594219 -1.3478745e-15 4.8667433e-05
0001c0 d2 63 47 be 1d 49 31 3e b2 3f bc 3c d8 0d a6 3d
       -0.19471672 0.17313047 0.022979591 0.08108109
0001d0 73 65 42 be e3 43 41 3d 2c 8d fd 3d ec d5 9c 3d
       -0.18984012 0.047183882 0.12380442 0.0765799
0001e0 0b ea 82 3e 43 08 03 be a2 39 1b bb 0e f3 94 be
       0.25569186 -0.1279612 -0.0023685475 -0.29091686
0001f0 14 33 64 3d bf 56 ae bd b7 e1 25 bd f0 a1 3b 3d
       0.055712774 -0.08512639 -0.04049846 0.045808733
000200 3f 73 b6 3d 94 42 25 bd 0f 9c 57 bd b0 59 e8 3d
       0.089087 -0.040346697 -0.052639063 0.113452315
000210 91 4d 59 a9 3b 7c 7b b9 ca 77 4e 3c 8e f8 3b 3d
       -4.8250957e-14 -0.00023983505 0.012601802 0.045891337
000220 81 25 be bc 6d 7c 1c 3c 4e dc 86 3d 78 bb 41 be
       -0.023211243 0.00955115 0.065849885 -0.1891917
000230 6d 93 35 3e 6e a0 cc 3a 3f ae f1 bd d9 ec 15 be
       0.1773202 0.0015611777 -0.11800813 -0.14641131
000240 22 65 91 3d 71 a3 2c 3e c4 4f 97 bc a0 16 83 bd
       0.07099368 0.16859223 -0.018470652 -0.064008
000250 4c 1a 0d be a2 82 67 3d 77 ff e9 3d 38 e6 2e bd
       -0.13779563 0.056521066 0.11425679 -0.042700022
000260 0d 78 c8 bd 5b 17 c4 3d 43 57 ab a9 07 e9 b1 ab
       -0.09788523 0.09574767 -7.609063e-14 -1.2641285e-12
000270 a8 3a 25 be 5a 25 83 3d 11 fb d0 bd 8d 29 b0 bb
       -0.16135657 0.064036086 -0.10204137 -0.005376047
000280 5f 10 f3 3d 60 ff 63 bd 3e 7e 98 bd 28 18 d9 3c
       0.11868357 -0.055663466 -0.07445954 0.026500776
000290 cb 16 13 bb 23 be 4c 3e 07 eb fa 3d bf cc c8 3d
       -0.0022444006 0.19994406 0.12251859 0.09804677
0002a0 fc 87 d6 3c cd 94 d2 bd 01 05 ba 3d b1 17 a2 bd
       0.02618789 -0.10282288 0.09082986 -0.07914675
0002b0 b8 c5 08 3e 05 57 8a bd 90 d1 4a bd ce d8 43 3e
       0.13356674 -0.06754879 -0.04951626 0.19125673
0002c0 0f 0f 94 29 1d e6 a1 ac 55 12 bb bc 8f a4 18 3e
       6.5751326e-14 -4.601443e-12 -0.02283589 0.14906524
0002d0 29 bd d8 3d 71 75 51 3e 7d 03 ca bd 75 f0 ac bd
       0.105829544 0.20454957 -0.098639466 -0.08444301
0002e0 b2 82 b2 bc 6c 04 25 be 46 86 60 3e 13 cf ab 3d
       -0.021790836 -0.16114968 0.21926221 0.08389106
0002f0 ec d1 ab bd 27 09 04 bd 2f 7c 84 bd 7d c4 20 3d
       -0.08389649 -0.03223529 -0.06468999 0.039249886
000300 20 e5 a9 bd 37 9a 18 3e 2f b7 12 be 33 25 25 3e
       -0.08295655 0.14902578 -0.14327691 0.16127472
000310 4d 59 2d 3c 60 a6 92 3d 42 08 d1 a8 8b af 51 a9
       0.010580373 0.0716064 -2.3207242e-14 -4.655958e-14
000320 85 10 83 bd b1 fe 1e bc c7 cd 7a 3d 6e 3a 1b be
       -0.06399635 -0.009704278 0.0612314 -0.15159008
000330 bf ff 70 be fc ab 5d bd c6 f9 48 3d 1e 90 30 be
       -0.2353506 -0.054119095 0.049066328 -0.17242476
000340 9d 5f b8 3c e8 69 0d 3d b3 84 a0 3d e3 aa 79 3c
       0.02250653 0.03452483 0.0783781 0.0152384965
000350 0b 37 ff bc 36 de df bb 20 a3 dd 3d 7a e5 6b 3e
       -0.031154176 -0.0068319095 0.10822129 0.23036757
000360 a5 56 d1 bd 8b bc 8b bd 14 d6 f3 3c a1 45 2a 3e
       -0.10221604 -0.06823071 0.029765166 0.16628124
000370 7b aa 49 a7 1d cf 1f 38 dd 1b ab 3d d4 bc 2b 3e
       -2.7986771e-15 3.8101443e-05 0.08354924 0.16771251
000380 8e 9b 63 bd 81 06 0a bd 4b 9e 3e be 29 d4 50 bd
       -0.05556827 -0.03369761 -0.18615071 -0.05098358
000390 9a 9e f8 3d 56 5b 3d 3e 89 6f c0 3d 77 0a fc 3d
       0.12139626 0.18491873 0.09396274 0.123066835
0003a0 c7 97 5f 3d 49 d6 b8 bd dd 22 17 3e c9 39 55 3d
       0.054588106 -0.09025247 0.14759393 0.05205706
0003b0 cc a0 0c be af a5 03 be 83 c6 34 be ab d0 21 be
       -0.13733214 -0.12856172 -0.17653851 -0.15802257
0003c0 ee ca e2 bd d2 26 11 3e b8 5d 34 a7 86 a0 bd a8
       -0.11073862 0.14174965 -2.5030823e-15 -2.1052831e-14
0003d0 54 19 39 3e d7 f7 1e be df cc 6f 3d cd a9 e9 3d
       0.18076068 -0.15524231 0.05854499 0.1140934
0003e0 e2 ae 11 be 5c 8d fe bd 44 85 28 3e d4 b3 d3 bc
       -0.14226869 -0.12429306 0.16457087 -0.025842585
0003f0 8d 68 c0 3d b3 93 47 3d e1 22 29 3e af 03 19 be
       0.093949415 0.04872484 0.16517211 -0.14942811

conv_layers.0.0.bias f4 [56]
000000 0c 27 54 3d 5d 8d 66 be ff 2a d8 bd 70 ad 81 be
       0.05179505 -0.22514863 -0.10555076 -0.25327635
000010 d4 fc c4 be f2 24 2b be bf 24 88 bc c2 bb 7f be
       -0.38474143 -0.16713312 -0.016619084 -0.24973968
000020 e3 ec 2d 3d 39 c7 68 3c 98 6d 73 bd e9 c9 42 be
       0.04246224 0.014207655 -0.05943069 -0.19022335
000030 37 1e 00 3e 05 f7 e0 3b 9b e6 34 be a5 79 57 be
       0.12511526 0.0068653845 -0.17666094 -0.21042497
000040 eb 3a 80 3d 8e cd 2a be 80 db b5 3d 60 ce ad bc
       0.06261238 -0.16679975 0.08879757 -0.021216571
000050 a9 2b 3b be 5f a2 71 be 31 99 03 3e ee 2e d0 bd
       -0.18278374 -0.23597096 0.12851407 -0.10165201
000060 d1 a8 26 3e 17 b8 fb 3d 13 87 ba be c9 40 a3 bd
       0.16275336 0.12290972 -0.36431178 -0.07971341
000070 ee 62 45 3c 3a da 14 3d c4 8d b4 3c c5 c1 21 bc
       0.012047512 0.03634093 0.022040255 -0.009872858
000080 71 ae 5f 3d 5b 11 12 be 37 4c 93 be 62 65 c3 3d
       0.05460972 -0.14264433 -0.28769085 0.095408216
000090 5e 44 27 be 6a a3 44 3e 8f 54 52 bd d9 36 04 bd
       -0.16334674 0.19202963 -0.051350173 -0.03227887
0000a0 3a 37 31 bd 56 68 95 be 3c 22 1f 3e 8a 9c be 3d
       -0.04326556 -0.29181165 0.15540403 0.09307201
0000b0 bd 61 48 3e 00 6e 8a be af b5 b8 3d d5 56 51 be
       0.19568534 -0.27037048 0.090190284 -0.2044328
0000c0 c1 e9 1a 3e 5a c1 aa 3d 86 d4 d7 bc 1b 9d 31 3d
       0.15128233 0.0833766 -0.026346456 0.043362718
0000d0 5a 8f 09 be b8 c0 9a 3d 65 23 08 3e b6 b9 e3 3d
       -0.1343359 0.075562894 0.13294752 0.11119406

conv_layers.0.2.weight f4 [56]
000000 4c e8 77 3f aa 29 7c 3f b6 c0 7c 3f 46 bf 85 3f
       0.9683883 0.98501074 0.98731554 1.0448997
000010 ea a2 8a 3f b1 87 83 3f c6 3c 81 3f f4 56 85 3f
       1.0830967 1.0275785 1.0096672 1.0417161
000020 cb 76 80 3f b5 58 82 3f a0 86 81 3f a8 0f 81 3f
       1.0036253 1.0183321 1.0119209 1.0082903
000030 74 ba 74 3f ed 1e 73 3f 7b bc 7c 3f 75 0c 84 3f
       0.95597005 0.94969064 0.987251 1.0316302
000040 f5 eb 80 3f f6 ab 80 3f 93 29 81 3f 49 43 6a 3f
       1.0072008 1.0052478 1.0090812 0.9150892
000050 f6 3b 83 3f 2e 5d 81 3f 3b 7d 74 3f 62 4b 7c 3f
       1.0252674 1.0106561 0.95503587 0.98552525
000060 a3 19 7e 3f ba 30 7b 3f 20 68 86 3f bb 77 81 3f
       0.9925787 0.98121226 1.0500526 1.0114664
000070 c7 ba 85 3f a1 2d 83 3f 44 4f 80 3f 68 89 7e 3f
       1.0447625 1.02483 1.002419 0.99428415
000080 9b 85 76 3f df c8 80 3f 48 35 88 3f 3c 5a 7f 3f
       0.96297616 1.0061301 1.064126 0.9974706
000090 db 0c 75 3f 25 83 79 3f d1 da 7b 3f 73 35 83 3f
       0.9572274 0.97465736 0.9838076 1.0250686
0000a0 c9 2b 7b 3f f3 59 84 3f f0 99 81 3f d3 5e 84 3f
       0.98113686 1.033995 1.0125103 1.0341438
0000b0 be 9f 79 3f 4f c2 7c 3f df df 83 3f 31 06 85 3f
       0.9750937 0.9873399 1.0302695 1.0392514
0000c0 80 97 6a 3f 12 65 72 3f a7 75 7e 3f fd 34 82 3f
       0.9163742 0.9468547 0.99398273 1.0172421
0000d0 31 1f 74 3f 0e 32 79 3f 05 d0 7e 3f ce 6f 7d 3f
       0.95360094 0.97342 0.9953616 0.98998725

conv_layers.0.2.bias f4 [56]
000000 5d 51 4d bd bd cd 18 bd ce 7f 91 bd fd 83 08 bb
       -0.050126422 -0.037305582 -0.07104455 -0.0020830624
000010 7d 4a 1b bd 9b 50 03 bd d8 55 04 bd 82 b6 c3 bb
       -0.037912834 -0.032059293 -0.03230843 -0.0059726844
000020 17 20 c6 bc 98 5d d5 bc 52 e9 08 bd 7a 8b 0a bd
       -0.024185224 -0.026045606 -0.033425637 -0.03382442
000030 2a df 5b bd 96 9c 65 bd 23 52 34 bd 55 4f 89 bc
       -0.053679623 -0.056057535 -0.044023644 -0.016761461
000040 1e e3 fb bb 1b b8 fa bc 5f 4b 00 bd 76 fc 56 bd
       -0.0076869866 -0.030605366 -0.03132188 -0.05248686
000050 50 93 03 bd e9 9b 1d bd cd 9a 8c bd 81 09 0a bd
       -0.03212291 -0.038478766 -0.068654634 -0.03370047
000060 67 43 23 bd 2f da 3c bd ea 37 97 bb d9 88 43 bc
       -0.0398592 -0.046106514 -0.00461482 -0.0119344825
000070 fa 06 06 bc a1 c7 1b bb c9 ea 6e bc c6 4b 2d bd
       -0.008180374 -0.002377011 -0.014582344 -0.04230859
000080 92 a2 05 bd 65 aa 29 bd 7f e2 d8 bc 11 c2 26 bc
       -0.032625742 -0.041422267 -0.02647519 -0.010178105
000090 02 32 04 bd a2 12 10 bd bb 9c 64 bd 1f f1 bf bc
       -0.032274254 -0.03517402 -0.055813532 -0.023430405
0000a0 0d 66 0a bd 96 81 4d bc 80 04 73 bc f9 b5 15 bc
       -0.03378873 -0.012543103 -0.014832616 -0.009137624
0000b0 70 66 4d bd 44 d9 64 bd b8 5d 04 bd 1f bd 16 bd
       -0.05014652 -0.055871263 -0.03231594 -0.036801454
0000c0 a6 5a 8b bd e8 1c 83 bd 76 87 16 bd a8 b7 78 bc
       -0.06804399 -0.06401998 -0.03675028 -0.015180506
0000d0 bb bf 42 bd 8b 0e b5 bc 7a 9e 05 bd f8 c0 ba bc
       -0.04754613 -0.022101661 -0.03262184 -0.022797093

conv_layers.0.2.running_mean f4 [56]
000000 1c 6d 63 3e 72 3c 06 3e 6d cd 15 3e 32 3c 49 3d
       0.2220959 0.13108996 0.14629145 0.049129672
000010 56 fa ff 3c 9c 7a f9 3d a2 bc 29 3e 18 94 9a 3d
       0.0312473 0.12181589 0.16575864 0.07547778
000020 63 cf 44 3e f7 a6 5e 3e aa 16 45 3e 92 7b d5 3d
       0.19219737 0.2174338 0.19246927 0.1042396
000030 59 27 a1 3e aa 42 64 3e 29 28 07 3e ec 3d 04 3e
       0.31475332 0.22291055 0.13198914 0.12914246
000040 1a 5e 8f 3e 92 d5 15 3e 31 e5 87 3e ef eb 8a 3e
       0.2800148 0.14632252 0.26542047 0.27133128
000050 05 1d 25 3e c2 13 b7 3d b4 ee 90 3e e5 be cb 3d
       0.16124351 0.089393154 0.28307116 0.099485196
000060 4e e6 9c 3e e1 f2 8d 3e 73 59 83 3d 90 9c 55 3e
       0.3064446 0.27724364 0.064135455 0.20860505
000070 33 43 3b 3e 2a be 89 3e 7c 93 65 3e 6e b2 6a 3e
       0.18287353 0.26902896 0.22419542 0.22919628
000080 06 34 82 3e 72 bf 56 3e 64 aa 9e 3d 7a 66 95 3e
       0.25430316 0.20971468 0.07747343 0.29179746
000090 e6 26 00 3e 82 0b a9 3e 5e 37 3c 3e 56 3f 2e 3e
       0.12514839 0.33016592 0.18380496 0.17016348
0000a0 43 76 41 3e 3d fd e9 3d 02 92 a6 3e a0 10 88 3e
       0.1889277 0.114252545 0.3253327 0.26575184
0000b0 82 3d 99 3e 7b c5 72 3d 11 9b 8f 3e 39 60 2a 3e
       0.2992974 0.059270363 0.28047994 0.16638269
0000c0 a1 6d 9a 3e dc 51 95 3e 6e c3 4c 3e d0 1c 59 3e
       0.30161765 0.29164016 0.19996426 0.21202397
0000d0 36 66 10 3e f2 fe 78 3e 0c e4 83 3e 62 0c 6d 3e
       0.1410149 0.24316004 0.25759923 0.23149255

conv_layers.0.2.running_var f4 [56]
000000 15 c3 c0 3d cf a8 8a 3d 27 e0 78 3d de 38 65 3c
       0.09412209 0.06770479 0.060760643 0.013990609
000010 f8 55 1d 3c 56 33 5c 3d a4 4f 84 3d 43 05 e5 3c
       0.009603016 0.053759895 0.06460503 0.02795661
000020 69 16 92 3d 5a 47 cf 3d 89 08 c3 3d b6 c3 24 3d
       0.07133181 0.10121031 0.09523112 0.040225707
000030 67 16 2e 3e 1d ee e0 3d d2 72 81 3d 20 69 7d 3d
       0.17000733 0.109829165 0.06320728 0.061867833
000040 d5 d9 15 3e f3 bd 89 3d 0a a2 01 3e 0c cb 2b 3e
       0.14633878 0.06725683 0.12659469 0.16776675
000050 bc 1a a9 3d f4 dc 06 3d 71 07 f8 3d ba c6 00 3d
       0.08257052 0.03292556 0.12110794 0.03143952
000060 4c a7 0e 3e 21 fe fb 3d 47 3e dd 3c e5 ba e0 3d
       0.13931006 0.123043306 0.027007235 0.10973147
000070 8e a8 8e 3d 26 f2 13 3e a1 dd d1 3d a6 47 f3 3d
       0.06965743 0.14447841 0.102473505 0.118789
000080 b0 7e e4 3d e9 04 f5 3d ef 7b f9 3c 8e 54 15 3e
       0.11156976 0.11963827 0.030454604 0.14583036
000090 b3 39 5f 3d 9b f2 18 3e 08 cd ac 3d ef d1 91 3d
       0.054498386 0.14936297 0.08437544 0.0712012
0000a0 30 6d b9 3d c5 f3 6d 3d 92 33 26 3e 2d 23 f2 3d
       0.09054029 0.058093805 0.1623061 0.118231155
0000b0 bf 8b d0 3d 53 f4 a4 3c 35 2e 06 3e ff 16 c0 3d
       0.101829045 0.020136034 0.13103564 0.09379386
0000c0 8f ca 09 3e 53 d3 1c 3e 1f a9 c7 3d 05 34 b8 3d
       0.13456176 0.15314989 0.09749054 0.08994297
0000d0 16 68 80 3d 00 1f d7 3d 6b e0 c9 3d ad d9 9f 3d
       0.06269853 0.1050396 0.098572575 0.0780519

conv_layers.1.0.weight f4 [56, 11, 3]
000000 c2 83 98 28 09 1e 6a 29 ad 71 a8 28 6f 6f d8 3c
       1.693253e-14 5.198449e-14 1.8701046e-14 0.026420323
000010 de 6a a6 bd d3 ab 35 be b6 5f a8 3d 45 d9 3e be
       -0.08125852 -0.17741327 0.082213804 -0.18637569
000020 68 88 fe 3d f3 2c d1 3d de 07 24 be b8 9d 2b be
       0.12428361 0.102136515 -0.16018626 -0.16759384
000030 43 db a2 bc 8a 15 5d 3e 4f dc 7f bd af d5 43 be
       -0.019879943 0.21590248 -0.062465962 -0.19124483
000040 b7 b4 d5 bd b5 3e 50 bd be a0 70 3d 18 b8 c2 3d
       -0.10434859 -0.050841052 0.058747046 0.09507769
000050 5b 81 14 3e ad 5a a2 3d 6f 5b 01 bd bd d3 2c 3e
       0.1450247 0.07927451 -0.03158134 0.16877647
000060 a3 7c f1 3d dc 08 65 3d 04 25 d8 3c 52 38 30 be
       0.11791351 0.055916652 0.026384838 -0.17208984
000070 b6 6d 7c 3d b0 59 1c bd b1 60 eb bc a4 6a 0b 3c
       0.061628066 -0.03817147 -0.02873263 0.008509312
000080 9a 1d e6 3d 5d fd c7 a6 6b 70 e6 a8 3d 5e f2 a7
       0.11236115 -1.3877073e-15 -2.5583883e-14 -6.7270666e-15
000090 7e f6 8d 3c b8 5f 13 3e 88 e5 81 bd ab b3 ec 3d
       0.01732945 0.14391983 -0.06342608 0.115577064
0000a0 4a 40 33 bd 23 3d 1d 3e c1 3f 39 3d 36 b8 ab 3c
       -0.043762483 0.15355353 0.045226816 0.020961862
0000b0 c6 0c 0e be 7e 2c 13 3c c7 0f 56 bd fa 10 a6 3c
       -0.1387206 0.008982776 -0.05226114 0.020271767
0000c0 32 59 02 be 43 22 c2 bc 61 29 26 bc e9 ed d5 bd
       -0.12729338 -0.023697978 -0.010141701 -0.104457684
0000d0 b0 9a 0d be 3f b5 2c 3e 9c d0 90 3d 16 d6 9e 3c
       -0.1382854 0.16866015 0.07071039 0.019389194
0000e0 b1 8b 98 bd aa 3b a5 bd 82 d5 10 3d 30 63 66 bd
       -0.07448519 -0.08068021 0.035359867 -0.056246936
0000f0 8c 99 13 3e be e5 12 be 42 d4 32 3e 71 b0 29 3e
       0.14414042 -0.14345452 0.17463782 0.16571213
000100 85 a9 0c be cc da 68 bd ca 8f 8f 2a 65 02 45 b5
       -0.13736542 -0.056849286 2.5501677e-13 -7.3391703e-07
000110 73 17 49 36 27 37 06 3c be 56 28 3e a6 f0 d3 3d
       2.9964983e-06 0.00819186 0.1643934 0.103486344
000120 0f 59 18 3e bb 6b b3 3d fa e5 42 bd 3c 11 57 3e
       0.14877723 0.08760782 -0.047582604 0.21002668
000130 50 d1 4b be fc fe ed 3d 78 fa c7 bd 5a b4 a5 3c
       -0.19904065 0.116209 -0.0976457 0.0202276
000140 1c 2d 3f be 01 e0 14 3c e1 63 0c 3e fc c3 de 3b
       -0.18669552 0.00908661 0.13709976 0.0067982655
000150 16 8a c2 3d ef 84 94 3d 79 5d 39 3e 2d 3b 29 3e
       0.09498994 0.072519176 0.18102063 0.1652648
000160 8e 0f c0 3d 1e 18 3e 3e b7 a7 de bc 0f 94 f3 3d
       0.09377967 0.18563887 -0.027179582 0.11893474
000170 41 0f 95 bd 28 af 9c 3b ac 9b 77 3d 14 37 96 3d
       -0.072783 0.0047816224 0.060451195 0.07334724
000180 8c 57 1d 39 41 ed 45 bd 31 03 84 3c a0 6f 9b ac
       0.000150053 -0.048321966 0.016114803 -4.417758e-12
000190 0a c7 17 af 2f f1 70 b2 8c 47 e4 bd 6c ed 5d 3d
       -1.3804083e-10 -1.4024677e-08 -0.11146459 0.0541815
0001a0 ee a0 5f 3d a8 d4 13 3e 35 7b ac bd 74 3c b4 3d
       0.054596834 0.1443659 -0.084219374 0.08800593
0001b0 25 77 88 3d 19 57 e1 bd e9 7b 1f 3e a9 17 2e 3d
       0.0666335 -0.11002941 0.15574612 0.042503033
0001c0 d6 58 c0 bc c7 f3 c0 bb 3b 07 09 bc d5 45 1e be
       -0.02347986 -0.0058884355 -0.00836354 -0.15456326
0001d0 10 4d 16 3c 10 a8 3a bd 11 10 44 bd dc c8 40 3e
       0.009173647 -0.045570433 -0.047866885 0.18826622
0001e0 14 fc 39 3e 23 0e 97 3c 3d 6a 02 be 86 77 39 3e
       0.18162566 0.018439358 -0.12735839 0.18112001
0001f0 53 52 a9 bd 41 7e 53 bd 69 eb 0c 3e 61 32 f1 bc
       -0.08267655 -0.051634077 0.13761677 -0.029442968
000200 3b db 49 bd b9 47 2d be 83 a0 f5 bc 5f 7f 44 be
       -0.04928134 -0.16921891 -0.029983765 -0.19189213
000210 cd a0 a6 2b 48 44 36 b7 7b 31 37 b6 e4 be 57 3d
       1.1839641e-12 -1.0863943e-05 -2.7297926e-06 0.05267228
000220 24 a8 95 bd 87 4f a6 bd 86 93 6e 3d 40 e7 9a 3b
       -0.07307461 -0.081206374 0.058246158 0.004727274
000230 ba 2b 9b 3d cc 64 42 bd 88 0a 15 bd 75 fe 06 bc
       0.075766996 -0.04745941 -0.036386997 -0.008239378
000240 45 e8 c2 3d 4e f7 66 3d bc 89 20 be 89 ed 55 3d
       0.09516958 0.056388192 -0.15677541 0.052228484
000250 bd a4 f0 3d 9b 2b e6 3d 3d 9c 0b 3d 72 57 8e bd
       0.11750171 0.11238786 0.034084547 -0.069502726
000260 6b 2d 16 3e 54 17 0e 3e 7d 6c f2 3d 48 0d 29 bd
       0.14665763 0.13876086 0.11837099 -0.04127243
000270 fd ab d5 3d 35 5d 5b bd 80 02 8c 3d 75 81 4a 3e
       0.10433195 -0.053555686 0.06836414 0.19775946
000280 11 04 48 be c9 9f 24 be 32 be f2 3b 20 6e 00 3e
       -0.19532801 -0.16076578 0.007407927 0.1254201
000290 2a b3 83 3c 6a cf 06 28 9d 1b 85 ab 61 f1 45 b5
       0.016076643 7.48347e-15 -9.457883e-13 -7.373947e-07
0002a0 1c 81 96 bd e9 83 26 3d cc f2 8a bc 91 7b fe bb
       -0.073488444 0.040653143 -0.016961478 -0.007766195
0002b0 c5 19 16 bd e7 51 00 be 00 fe 71 be bf 6f 63 3d
       -0.03664567 -0.12531243 -0.2363205 0.05552649
0002c0 98 f2 2f be 7b 6a 41 3e 9f 4c 52 3d 7f 9c 54 3d
       -0.17182386 0.18888275 0.051342603 0.05190706
0002d0 31 ae ea 3c 69 02 f7 3b 85 9a 19 be 75 e8 19 3e
       0.028647514 0.007538129 -0.15000351 0.15030082
0002e0 3d 8d 42 3d f5 c4 0c 3c b8 5c d6 3d 10 e7 0f 3d
       0.047497977 0.00859188 0.104669034 0.035132468
0002f0 de 9f 60 3d 23 d8 63 3b 36 8f af bc 60 30 ef bd
       0.05483996 0.0034766279 -0.021430593 -0.11679149
000300 59 ef 85 bd fb 32 19 3c 3b 20 b0 3d d8 3c 47 3e
       -0.065397926 0.009350534 0.085998975 0.19456804
000310 8a ec b1 bd 3e 7c 79 3c c8 86 9c 29 9e 00 26 aa
       -0.08687694 0.015227376 6.9511725e-14 -1.4743976e-13
000320 e6 a9 94 ab 3f 91 f0 bd 13 a6 82 bd fa 48 87 3d
       -1.0563189e-12 -0.117464535 -0.063793324 0.06605716
000330 c0 65 39 be b2 bd 4f be be 55 5e bc d5 f2 27 3e
       -0.18105221 -0.20287207 -0.013570247 0.16401227
000340 e8 b5 f4 bd e1 95 8c bc 33 7d 48 be 11 89 b3 bd
       -0.11948758 -0.017161312 -0.1957901 -0.08766378
000350 79 4f 30 3d 46 13 c2 bc af cd 2b be 79 b1 b6 bd
       0.04304454 -0.02369083 -0.16777681 -0.08920569
000360 b2 6f 53 3d eb 83 8d 3c d7 fb 96 3b 03 db 67 be
       0.051620193 0.017274817 0.0046076584 -0.2264214
000370 48 14 8c 3b 2d 65 87 bd 55 71 e7 bc cd c4 0b 3e
       0.0042748787 -0.066110946 -0.028252283 0.13649292
000380 2d b9 7c bd f5 a4 43 3b 23 70 13 be 63 b6 10 be
       -0.061700035 0.002985296 -0.14398246 -0.14132075
000390 0a 15 41 be 66 ab 86 3d 56 e2 dd 3c e0 36 a3 aa
       -0.18855682 0.065756604 0.027085464 -2.8992694e-13
0003a0 54 93 ac 2c f4 c5 14 a7 2d cd 3f 3e 25 75 5d bd
       4.9048907e-12 -2.0646437e-15 0.18730612 -0.054066796
0003b0 6e c4 5e bd 7e e0 f9 bd a0 da d0 bc 75 03 cf 3d
       -0.05438655 -0.122010216 -0.025494874 0.10108081
0003c0 b5 57 6a bc e8 fd d6 3d 81 3c b6 bd 41 9c d0 3c
       -0.014303138 0.104976475 -0.08898259 0.025465133
0003d0 23 75 ef 3d c2 a1 af bc 19 1f 31 be 94 99 73 3d
       0.11692264 -0.021439437 -0.17297019 0.059472635
0003e0 56 92 df 3d a6 62 be bd 9e 45 79 be 00 9d de 3d
       0.10916583 -0.092961594 -0.24342963 0.10869789
0003f0 aa 45 25 3d de 80 a5 bd fb 60 39 be b2 8c 50 bd
       0.04034964 -0.0808122 -0.18103401 -0.050915428

conv_layers.1.0.bias f4 [56]
000000 a1 c7 f9 bd b2 6c 08 be 78 69 53 be d6 ed fd 3d
       -0.12196279 -0.13322714 -0.20645702 0.12398879
000010 ba fc 15 bd 1c 13 85 be ea eb 66 3c b7 c7 05 be
       -0.036617972 -0.25991142 0.014094332 -0.13064466
000020 e7 e9 32 bd c5 c8 52 be f2 df 0d be 79 19 25 be
       -0.043680098 -0.205844 -0.1385496 -0.16122998
000030 68 55 dd bd b6 b8 29 bd e5 4f 21 be 48 e2 72 bd
       -0.108073056 -0.04143592 -0.15753134 -0.05929783
000040 dc 58 ef 3d 96 e5 3e 3d 21 ee 06 be f9 50 9e 3d
       0.116868705 0.04660567 -0.13176776 0.07730288
000050 05 24 39 be 78 b9 ca bd 32 3d 3a bd 4a 04 50 3e
       -0.18080147 -0.098986566 -0.045468517 0.20314136
000060 cc 6c d6 bc 68 e3 85 be b5 32 81 3d 7e 30 6e be
       -0.026174925 -0.2615006 0.063085 -0.23260686
000070 fd fc 58 bd 5a 54 2c be 62 9a 01 be 81 f4 b4 bd
       -0.052975643 -0.16829053 -0.12656549 -0.08835698
000080 6f 5a 5a be ce 61 9d bc cb e6 84 be 43 57 46 bd
       -0.2132356 -0.019211676 -0.2595733 -0.048423063
000090 5a d6 10 bd 5f ba 2a be 51 a5 21 3c 9a 02 23 be
       -0.03536067 -0.16672657 0.009866075 -0.15918961
0000a0 6f a8 c2 bd c8 c5 12 be a4 dd 08 3c d1 6c 09 3d
       -0.095047824 -0.1433326 0.0083536245 0.03355104
0000b0 bc 43 e2 3d a7 8c e4 bc 1e 01 e5 bd bb ae 86 be
       0.110480756 -0.0278991 -0.11181854 -0.26305184
0000c0 db e6 dd bd c9 74 bd 3d a8 1b 61 be e3 3c 3a 3e
       -0.10835048 0.092507906 -0.21983206 0.18187289
0000d0 ff 12 9e bd 4b 60 c6 bd b1 4a e2 bd b4 05 5e 3d
       -0.07718467 -0.09686335 -0.110494025 0.054204658

conv_layers.1.2.weight f4 [56]
000000 01 ea 82 3f 38 c7 81 3f 64 43 85 3f 19 34 77 3f
       1.0227662 1.0138922 1.0411191 0.9656387
000010 22 4e 84 3f 85 72 83 3f fe b7 80 3f 7d 8c 78 3f
       1.0336344 1.0269324 1.005615 0.9708937
000020 b0 f7 83 3f a5 84 8c 3f d2 d4 81 3f bb b3 84 3f
       1.0309963 1.097798 1.0143073 1.0367349
000030 28 99 83 3f 78 f3 7c 3f 2f 58 7f 3f 25 26 86 3f
       1.0281115 0.98809004 0.9974393 1.0480391
000040 d3 bf 74 3f fb 30 7e 3f 24 06 84 3f 5f bb 77 3f
       0.956052 0.9929349 1.0314374 0.9677028
000050 77 b4 7e 3f 94 06 76 3f 7a b8 84 3f c9 f9 74 3f
       0.9949412 0.9610379 1.0368798 0.9569364
000060 86 ed 85 3f d4 49 88 3f 51 1b 7e 3f 60 31 85 3f
       1.0463111 1.064753 0.9926043 1.0405693
000070 be 7c 84 3f 8c 46 8a 3f bf da 8a 3f 49 5d 80 3f
       1.0350568 1.0802779 1.0848006 1.0028468
000080 54 db 87 3f 79 5e 84 3f e2 72 83 3f 3b 0a 7f 3f
       1.0613809 1.0341331 1.0269434 0.99624985
000090 b7 a4 84 3f 25 4e 85 3f 16 9a 85 3f 41 17 83 3f
       1.0362767 1.0414473 1.0437648 1.0241472
0000a0 4d be 82 3f e4 b0 87 3f d3 b7 84 3f e8 1d 82 3f
       1.0214325 1.0600858 1.0368599 1.0165377
0000b0 83 eb 7e 3f 43 ed 80 3f 10 e4 88 3f 61 a1 89 3f
       0.9957811 1.0072407 1.0694599 1.0752374
0000c0 3a 3b 75 3f d1 79 72 3f eb d5 82 3f 61 ec 70 3f
       0.957935 0.9471713 1.0221533 0.94110686
0000d0 c1 8e 74 3f 2d 56 83 3f d0 bb 76 3f d1 9e 80 3f
       0.95530325 1.0260674 0.9638033 1.0048467
